{"format": "graph-model", "generatedBy": "2.19.0", "convertedBy": "TensorFlow.js Converter v4.22.0", "signature": {"inputs": {"input": {"name": "input:0", "dtype": "DT_FLOAT", "tensorShape": {"dim": [{"size": "-1"}, {"size": "224"}, {"size": "224"}, {"size": "3"}]}}}, "outputs": {"output_0": {"name": "Identity:0", "dtype": "DT_FLOAT", "tensorShape": {"dim": [{"size": "-1"}, {"size": "20"}]}}}}, "modelTopology": {"node": [{"name": "PartitionedCall/model/tf.compat.v1.transpose_5/transpose/perm", "op": "Const", "attr": {"value": {"tensor": {"dtype": "DT_INT32", "tensorShape": {"dim": [{"size": "4"}]}}}, "dtype": {"type": "DT_INT32"}}}, {"name": "unknown_112", "op": "Const", "attr": {"value": {"tensor": {"dtype": "DT_FLOAT", "tensorShape": {"dim": [{"size": "2048"}]}}}, "dtype": {"type": "DT_FLOAT"}}}, {"name": "unknown_103", "op": "Const", "attr": {"value": {"tensor": {"dtype": "DT_FLOAT", "tensorShape": {"dim": [{"size": "1"}, {"size": "1"}, {"size": "2048"}, {"size": "512"}]}}}, "dtype": {"type": "DT_FLOAT"}}}, {"name": "unknown_105", "op": "Const", "attr": {"value": {"tensor": {"dtype": "DT_FLOAT", "tensorShape": {"dim": [{"size": "512"}]}}}, "dtype": {"type": "DT_FLOAT"}}}, {"name": "unknown_108", "op": "Const", "attr": {"value": {"tensor": {"dtype": "DT_FLOAT", "tensorShape": {"dim": [{"size": "3"}, {"size": "3"}, {"size": "512"}, {"size": "512"}]}}}, "dtype": {"type": "DT_FLOAT"}}}, {"name": "unknown_109", "op": "Const", "attr": {"value": {"tensor": {"dtype": "DT_FLOAT", "tensorShape": {"dim": [{"size": "512"}]}}}, "dtype": {"type": "DT_FLOAT"}}}, {"name": "unknown_110", "op": "Const", "attr": {"value": {"tensor": {"dtype": "DT_FLOAT", "tensorShape": {"dim": [{"size": "1"}, {"size": "1"}, {"size": "512"}, {"size": "2048"}]}}}, "dtype": {"type": "DT_FLOAT"}}}, {"name": "unknown_102", "op": "Const", "attr": {"value": {"tensor": {"dtype": "DT_FLOAT", "tensorShape": {"dim": [{"size": "2048"}]}}}, "dtype": {"type": "DT_FLOAT"}}}, {"name": "unknown_97", "op": "Const", "attr": {"value": {"tensor": {"dtype": "DT_FLOAT", "tensorShape": {"dim": [{"size": "1"}, {"size": "1"}, {"size": "2048"}, {"size": "512"}]}}}, "dtype": {"type": "DT_FLOAT"}}}, {"name": "unknown_98", "op": "Const", "attr": {"value": {"tensor": {"dtype": "DT_FLOAT", "tensorShape": {"dim": [{"size": "512"}]}}}, "dtype": {"type": "DT_FLOAT"}}}, {"name": "unknown_99", "op": "Const", "attr": {"value": {"tensor": {"dtype": "DT_FLOAT", "tensorShape": {"dim": [{"size": "3"}, {"size": "3"}, {"size": "512"}, {"size": "512"}]}}}, "dtype": {"type": "DT_FLOAT"}}}, {"name": "unknown_100", "op": "Const", "attr": {"value": {"tensor": {"dtype": "DT_FLOAT", "tensorShape": {"dim": [{"size": "512"}]}}}, "dtype": {"type": "DT_FLOAT"}}}, {"name": "unknown_101", "op": "Const", "attr": {"value": {"tensor": {"dtype": "DT_FLOAT", "tensorShape": {"dim": [{"size": "1"}, {"size": "1"}, {"size": "512"}, {"size": "2048"}]}}}, "dtype": {"type": "DT_FLOAT"}}}, {"name": "unknown_88", "op": "Const", "attr": {"value": {"tensor": {"dtype": "DT_FLOAT", "tensorShape": {"dim": [{"size": "1"}, {"size": "1"}, {"size": "1024"}, {"size": "512"}]}}}, "dtype": {"type": "DT_FLOAT"}}}, {"name": "unknown_89", "op": "Const", "attr": {"value": {"tensor": {"dtype": "DT_FLOAT", "tensorShape": {"dim": [{"size": "512"}]}}}, "dtype": {"type": "DT_FLOAT"}}}, {"name": "unknown_90", "op": "Const", "attr": {"value": {"tensor": {"dtype": "DT_INT32", "tensorShape": {"dim": [{"size": "4"}, {"size": "2"}]}}}, "dtype": {"type": "DT_INT32"}}}, {"name": "unknown_91", "op": "Const", "attr": {"value": {"tensor": {"dtype": "DT_FLOAT", "tensorShape": {"dim": [{"size": "3"}, {"size": "3"}, {"size": "512"}, {"size": "512"}]}}}, "dtype": {"type": "DT_FLOAT"}}}, {"name": "unknown_92", "op": "Const", "attr": {"value": {"tensor": {"dtype": "DT_FLOAT", "tensorShape": {"dim": [{"size": "512"}]}}}, "dtype": {"type": "DT_FLOAT"}}}, {"name": "unknown_94", "op": "Const", "attr": {"value": {"tensor": {"dtype": "DT_FLOAT", "tensorShape": {"dim": [{"size": "1"}, {"size": "1"}, {"size": "512"}, {"size": "2048"}]}}}, "dtype": {"type": "DT_FLOAT"}}}, {"name": "unknown_95", "op": "Const", "attr": {"value": {"tensor": {"dtype": "DT_FLOAT", "tensorShape": {"dim": [{"size": "2048"}]}}}, "dtype": {"type": "DT_FLOAT"}}}, {"name": "unknown_87", "op": "Const", "attr": {"value": {"tensor": {"dtype": "DT_FLOAT", "tensorShape": {"dim": [{"size": "1024"}]}}}, "dtype": {"type": "DT_FLOAT"}}}, {"name": "unknown_82", "op": "Const", "attr": {"value": {"tensor": {"dtype": "DT_FLOAT", "tensorShape": {"dim": [{"size": "1"}, {"size": "1"}, {"size": "1024"}, {"size": "256"}]}}}, "dtype": {"type": "DT_FLOAT"}}}, {"name": "unknown_83", "op": "Const", "attr": {"value": {"tensor": {"dtype": "DT_FLOAT", "tensorShape": {"dim": [{"size": "256"}]}}}, "dtype": {"type": "DT_FLOAT"}}}, {"name": "unknown_84", "op": "Const", "attr": {"value": {"tensor": {"dtype": "DT_FLOAT", "tensorShape": {"dim": [{"size": "3"}, {"size": "3"}, {"size": "256"}, {"size": "256"}]}}}, "dtype": {"type": "DT_FLOAT"}}}, {"name": "unknown_85", "op": "Const", "attr": {"value": {"tensor": {"dtype": "DT_FLOAT", "tensorShape": {"dim": [{"size": "256"}]}}}, "dtype": {"type": "DT_FLOAT"}}}, {"name": "unknown_86", "op": "Const", "attr": {"value": {"tensor": {"dtype": "DT_FLOAT", "tensorShape": {"dim": [{"size": "1"}, {"size": "1"}, {"size": "256"}, {"size": "1024"}]}}}, "dtype": {"type": "DT_FLOAT"}}}, {"name": "unknown_81", "op": "Const", "attr": {"value": {"tensor": {"dtype": "DT_FLOAT", "tensorShape": {"dim": [{"size": "1024"}]}}}, "dtype": {"type": "DT_FLOAT"}}}, {"name": "unknown_76", "op": "Const", "attr": {"value": {"tensor": {"dtype": "DT_FLOAT", "tensorShape": {"dim": [{"size": "1"}, {"size": "1"}, {"size": "1024"}, {"size": "256"}]}}}, "dtype": {"type": "DT_FLOAT"}}}, {"name": "unknown_77", "op": "Const", "attr": {"value": {"tensor": {"dtype": "DT_FLOAT", "tensorShape": {"dim": [{"size": "256"}]}}}, "dtype": {"type": "DT_FLOAT"}}}, {"name": "unknown_78", "op": "Const", "attr": {"value": {"tensor": {"dtype": "DT_FLOAT", "tensorShape": {"dim": [{"size": "3"}, {"size": "3"}, {"size": "256"}, {"size": "256"}]}}}, "dtype": {"type": "DT_FLOAT"}}}, {"name": "unknown_79", "op": "Const", "attr": {"value": {"tensor": {"dtype": "DT_FLOAT", "tensorShape": {"dim": [{"size": "256"}]}}}, "dtype": {"type": "DT_FLOAT"}}}, {"name": "unknown_80", "op": "Const", "attr": {"value": {"tensor": {"dtype": "DT_FLOAT", "tensorShape": {"dim": [{"size": "1"}, {"size": "1"}, {"size": "256"}, {"size": "1024"}]}}}, "dtype": {"type": "DT_FLOAT"}}}, {"name": "unknown_75", "op": "Const", "attr": {"value": {"tensor": {"dtype": "DT_FLOAT", "tensorShape": {"dim": [{"size": "1024"}]}}}, "dtype": {"type": "DT_FLOAT"}}}, {"name": "unknown_70", "op": "Const", "attr": {"value": {"tensor": {"dtype": "DT_FLOAT", "tensorShape": {"dim": [{"size": "1"}, {"size": "1"}, {"size": "1024"}, {"size": "256"}]}}}, "dtype": {"type": "DT_FLOAT"}}}, {"name": "unknown_71", "op": "Const", "attr": {"value": {"tensor": {"dtype": "DT_FLOAT", "tensorShape": {"dim": [{"size": "256"}]}}}, "dtype": {"type": "DT_FLOAT"}}}, {"name": "unknown_72", "op": "Const", "attr": {"value": {"tensor": {"dtype": "DT_FLOAT", "tensorShape": {"dim": [{"size": "3"}, {"size": "3"}, {"size": "256"}, {"size": "256"}]}}}, "dtype": {"type": "DT_FLOAT"}}}, {"name": "unknown_73", "op": "Const", "attr": {"value": {"tensor": {"dtype": "DT_FLOAT", "tensorShape": {"dim": [{"size": "256"}]}}}, "dtype": {"type": "DT_FLOAT"}}}, {"name": "unknown_74", "op": "Const", "attr": {"value": {"tensor": {"dtype": "DT_FLOAT", "tensorShape": {"dim": [{"size": "1"}, {"size": "1"}, {"size": "256"}, {"size": "1024"}]}}}, "dtype": {"type": "DT_FLOAT"}}}, {"name": "unknown_69", "op": "Const", "attr": {"value": {"tensor": {"dtype": "DT_FLOAT", "tensorShape": {"dim": [{"size": "1024"}]}}}, "dtype": {"type": "DT_FLOAT"}}}, {"name": "unknown_64", "op": "Const", "attr": {"value": {"tensor": {"dtype": "DT_FLOAT", "tensorShape": {"dim": [{"size": "1"}, {"size": "1"}, {"size": "1024"}, {"size": "256"}]}}}, "dtype": {"type": "DT_FLOAT"}}}, {"name": "unknown_65", "op": "Const", "attr": {"value": {"tensor": {"dtype": "DT_FLOAT", "tensorShape": {"dim": [{"size": "256"}]}}}, "dtype": {"type": "DT_FLOAT"}}}, {"name": "unknown_66", "op": "Const", "attr": {"value": {"tensor": {"dtype": "DT_FLOAT", "tensorShape": {"dim": [{"size": "3"}, {"size": "3"}, {"size": "256"}, {"size": "256"}]}}}, "dtype": {"type": "DT_FLOAT"}}}, {"name": "unknown_67", "op": "Const", "attr": {"value": {"tensor": {"dtype": "DT_FLOAT", "tensorShape": {"dim": [{"size": "256"}]}}}, "dtype": {"type": "DT_FLOAT"}}}, {"name": "unknown_68", "op": "Const", "attr": {"value": {"tensor": {"dtype": "DT_FLOAT", "tensorShape": {"dim": [{"size": "1"}, {"size": "1"}, {"size": "256"}, {"size": "1024"}]}}}, "dtype": {"type": "DT_FLOAT"}}}, {"name": "unknown_63", "op": "Const", "attr": {"value": {"tensor": {"dtype": "DT_FLOAT", "tensorShape": {"dim": [{"size": "1024"}]}}}, "dtype": {"type": "DT_FLOAT"}}}, {"name": "unknown_58", "op": "Const", "attr": {"value": {"tensor": {"dtype": "DT_FLOAT", "tensorShape": {"dim": [{"size": "1"}, {"size": "1"}, {"size": "1024"}, {"size": "256"}]}}}, "dtype": {"type": "DT_FLOAT"}}}, {"name": "unknown_59", "op": "Const", "attr": {"value": {"tensor": {"dtype": "DT_FLOAT", "tensorShape": {"dim": [{"size": "256"}]}}}, "dtype": {"type": "DT_FLOAT"}}}, {"name": "unknown_60", "op": "Const", "attr": {"value": {"tensor": {"dtype": "DT_FLOAT", "tensorShape": {"dim": [{"size": "3"}, {"size": "3"}, {"size": "256"}, {"size": "256"}]}}}, "dtype": {"type": "DT_FLOAT"}}}, {"name": "unknown_61", "op": "Const", "attr": {"value": {"tensor": {"dtype": "DT_FLOAT", "tensorShape": {"dim": [{"size": "256"}]}}}, "dtype": {"type": "DT_FLOAT"}}}, {"name": "unknown_62", "op": "Const", "attr": {"value": {"tensor": {"dtype": "DT_FLOAT", "tensorShape": {"dim": [{"size": "1"}, {"size": "1"}, {"size": "256"}, {"size": "1024"}]}}}, "dtype": {"type": "DT_FLOAT"}}}, {"name": "unknown_49", "op": "Const", "attr": {"value": {"tensor": {"dtype": "DT_FLOAT", "tensorShape": {"dim": [{"size": "1"}, {"size": "1"}, {"size": "512"}, {"size": "256"}]}}}, "dtype": {"type": "DT_FLOAT"}}}, {"name": "unknown_50", "op": "Const", "attr": {"value": {"tensor": {"dtype": "DT_FLOAT", "tensorShape": {"dim": [{"size": "256"}]}}}, "dtype": {"type": "DT_FLOAT"}}}, {"name": "unknown_51", "op": "Const", "attr": {"value": {"tensor": {"dtype": "DT_INT32", "tensorShape": {"dim": [{"size": "4"}, {"size": "2"}]}}}, "dtype": {"type": "DT_INT32"}}}, {"name": "unknown_52", "op": "Const", "attr": {"value": {"tensor": {"dtype": "DT_FLOAT", "tensorShape": {"dim": [{"size": "3"}, {"size": "3"}, {"size": "256"}, {"size": "256"}]}}}, "dtype": {"type": "DT_FLOAT"}}}, {"name": "unknown_53", "op": "Const", "attr": {"value": {"tensor": {"dtype": "DT_FLOAT", "tensorShape": {"dim": [{"size": "256"}]}}}, "dtype": {"type": "DT_FLOAT"}}}, {"name": "unknown_55", "op": "Const", "attr": {"value": {"tensor": {"dtype": "DT_FLOAT", "tensorShape": {"dim": [{"size": "1"}, {"size": "1"}, {"size": "256"}, {"size": "1024"}]}}}, "dtype": {"type": "DT_FLOAT"}}}, {"name": "unknown_56", "op": "Const", "attr": {"value": {"tensor": {"dtype": "DT_FLOAT", "tensorShape": {"dim": [{"size": "1024"}]}}}, "dtype": {"type": "DT_FLOAT"}}}, {"name": "unknown_48", "op": "Const", "attr": {"value": {"tensor": {"dtype": "DT_FLOAT", "tensorShape": {"dim": [{"size": "512"}]}}}, "dtype": {"type": "DT_FLOAT"}}}, {"name": "unknown_43", "op": "Const", "attr": {"value": {"tensor": {"dtype": "DT_FLOAT", "tensorShape": {"dim": [{"size": "1"}, {"size": "1"}, {"size": "512"}, {"size": "128"}]}}}, "dtype": {"type": "DT_FLOAT"}}}, {"name": "unknown_44", "op": "Const", "attr": {"value": {"tensor": {"dtype": "DT_FLOAT", "tensorShape": {"dim": [{"size": "128"}]}}}, "dtype": {"type": "DT_FLOAT"}}}, {"name": "unknown_45", "op": "Const", "attr": {"value": {"tensor": {"dtype": "DT_FLOAT", "tensorShape": {"dim": [{"size": "3"}, {"size": "3"}, {"size": "128"}, {"size": "128"}]}}}, "dtype": {"type": "DT_FLOAT"}}}, {"name": "unknown_46", "op": "Const", "attr": {"value": {"tensor": {"dtype": "DT_FLOAT", "tensorShape": {"dim": [{"size": "128"}]}}}, "dtype": {"type": "DT_FLOAT"}}}, {"name": "unknown_47", "op": "Const", "attr": {"value": {"tensor": {"dtype": "DT_FLOAT", "tensorShape": {"dim": [{"size": "1"}, {"size": "1"}, {"size": "128"}, {"size": "512"}]}}}, "dtype": {"type": "DT_FLOAT"}}}, {"name": "unknown_42", "op": "Const", "attr": {"value": {"tensor": {"dtype": "DT_FLOAT", "tensorShape": {"dim": [{"size": "512"}]}}}, "dtype": {"type": "DT_FLOAT"}}}, {"name": "unknown_37", "op": "Const", "attr": {"value": {"tensor": {"dtype": "DT_FLOAT", "tensorShape": {"dim": [{"size": "1"}, {"size": "1"}, {"size": "512"}, {"size": "128"}]}}}, "dtype": {"type": "DT_FLOAT"}}}, {"name": "unknown_38", "op": "Const", "attr": {"value": {"tensor": {"dtype": "DT_FLOAT", "tensorShape": {"dim": [{"size": "128"}]}}}, "dtype": {"type": "DT_FLOAT"}}}, {"name": "unknown_39", "op": "Const", "attr": {"value": {"tensor": {"dtype": "DT_FLOAT", "tensorShape": {"dim": [{"size": "3"}, {"size": "3"}, {"size": "128"}, {"size": "128"}]}}}, "dtype": {"type": "DT_FLOAT"}}}, {"name": "unknown_40", "op": "Const", "attr": {"value": {"tensor": {"dtype": "DT_FLOAT", "tensorShape": {"dim": [{"size": "128"}]}}}, "dtype": {"type": "DT_FLOAT"}}}, {"name": "unknown_41", "op": "Const", "attr": {"value": {"tensor": {"dtype": "DT_FLOAT", "tensorShape": {"dim": [{"size": "1"}, {"size": "1"}, {"size": "128"}, {"size": "512"}]}}}, "dtype": {"type": "DT_FLOAT"}}}, {"name": "unknown_36", "op": "Const", "attr": {"value": {"tensor": {"dtype": "DT_FLOAT", "tensorShape": {"dim": [{"size": "512"}]}}}, "dtype": {"type": "DT_FLOAT"}}}, {"name": "unknown_31", "op": "Const", "attr": {"value": {"tensor": {"dtype": "DT_FLOAT", "tensorShape": {"dim": [{"size": "1"}, {"size": "1"}, {"size": "512"}, {"size": "128"}]}}}, "dtype": {"type": "DT_FLOAT"}}}, {"name": "unknown_32", "op": "Const", "attr": {"value": {"tensor": {"dtype": "DT_FLOAT", "tensorShape": {"dim": [{"size": "128"}]}}}, "dtype": {"type": "DT_FLOAT"}}}, {"name": "unknown_33", "op": "Const", "attr": {"value": {"tensor": {"dtype": "DT_FLOAT", "tensorShape": {"dim": [{"size": "3"}, {"size": "3"}, {"size": "128"}, {"size": "128"}]}}}, "dtype": {"type": "DT_FLOAT"}}}, {"name": "unknown_34", "op": "Const", "attr": {"value": {"tensor": {"dtype": "DT_FLOAT", "tensorShape": {"dim": [{"size": "128"}]}}}, "dtype": {"type": "DT_FLOAT"}}}, {"name": "unknown_35", "op": "Const", "attr": {"value": {"tensor": {"dtype": "DT_FLOAT", "tensorShape": {"dim": [{"size": "1"}, {"size": "1"}, {"size": "128"}, {"size": "512"}]}}}, "dtype": {"type": "DT_FLOAT"}}}, {"name": "unknown_22", "op": "Const", "attr": {"value": {"tensor": {"dtype": "DT_FLOAT", "tensorShape": {"dim": [{"size": "1"}, {"size": "1"}, {"size": "256"}, {"size": "128"}]}}}, "dtype": {"type": "DT_FLOAT"}}}, {"name": "unknown_23", "op": "Const", "attr": {"value": {"tensor": {"dtype": "DT_FLOAT", "tensorShape": {"dim": [{"size": "128"}]}}}, "dtype": {"type": "DT_FLOAT"}}}, {"name": "unknown_24", "op": "Const", "attr": {"value": {"tensor": {"dtype": "DT_INT32", "tensorShape": {"dim": [{"size": "4"}, {"size": "2"}]}}}, "dtype": {"type": "DT_INT32"}}}, {"name": "unknown_25", "op": "Const", "attr": {"value": {"tensor": {"dtype": "DT_FLOAT", "tensorShape": {"dim": [{"size": "3"}, {"size": "3"}, {"size": "128"}, {"size": "128"}]}}}, "dtype": {"type": "DT_FLOAT"}}}, {"name": "unknown_26", "op": "Const", "attr": {"value": {"tensor": {"dtype": "DT_FLOAT", "tensorShape": {"dim": [{"size": "128"}]}}}, "dtype": {"type": "DT_FLOAT"}}}, {"name": "unknown_28", "op": "Const", "attr": {"value": {"tensor": {"dtype": "DT_FLOAT", "tensorShape": {"dim": [{"size": "1"}, {"size": "1"}, {"size": "128"}, {"size": "512"}]}}}, "dtype": {"type": "DT_FLOAT"}}}, {"name": "unknown_29", "op": "Const", "attr": {"value": {"tensor": {"dtype": "DT_FLOAT", "tensorShape": {"dim": [{"size": "512"}]}}}, "dtype": {"type": "DT_FLOAT"}}}, {"name": "unknown_21", "op": "Const", "attr": {"value": {"tensor": {"dtype": "DT_FLOAT", "tensorShape": {"dim": [{"size": "256"}]}}}, "dtype": {"type": "DT_FLOAT"}}}, {"name": "unknown_16", "op": "Const", "attr": {"value": {"tensor": {"dtype": "DT_FLOAT", "tensorShape": {"dim": [{"size": "1"}, {"size": "1"}, {"size": "256"}, {"size": "64"}]}}}, "dtype": {"type": "DT_FLOAT"}}}, {"name": "unknown_17", "op": "Const", "attr": {"value": {"tensor": {"dtype": "DT_FLOAT", "tensorShape": {"dim": [{"size": "64"}]}}}, "dtype": {"type": "DT_FLOAT"}}}, {"name": "unknown_18", "op": "Const", "attr": {"value": {"tensor": {"dtype": "DT_FLOAT", "tensorShape": {"dim": [{"size": "3"}, {"size": "3"}, {"size": "64"}, {"size": "64"}]}}}, "dtype": {"type": "DT_FLOAT"}}}, {"name": "unknown_19", "op": "Const", "attr": {"value": {"tensor": {"dtype": "DT_FLOAT", "tensorShape": {"dim": [{"size": "64"}]}}}, "dtype": {"type": "DT_FLOAT"}}}, {"name": "unknown_20", "op": "Const", "attr": {"value": {"tensor": {"dtype": "DT_FLOAT", "tensorShape": {"dim": [{"size": "1"}, {"size": "1"}, {"size": "64"}, {"size": "256"}]}}}, "dtype": {"type": "DT_FLOAT"}}}, {"name": "unknown_15", "op": "Const", "attr": {"value": {"tensor": {"dtype": "DT_FLOAT", "tensorShape": {"dim": [{"size": "256"}]}}}, "dtype": {"type": "DT_FLOAT"}}}, {"name": "unknown_10", "op": "Const", "attr": {"value": {"tensor": {"dtype": "DT_FLOAT", "tensorShape": {"dim": [{"size": "1"}, {"size": "1"}, {"size": "256"}, {"size": "64"}]}}}, "dtype": {"type": "DT_FLOAT"}}}, {"name": "unknown_11", "op": "Const", "attr": {"value": {"tensor": {"dtype": "DT_FLOAT", "tensorShape": {"dim": [{"size": "64"}]}}}, "dtype": {"type": "DT_FLOAT"}}}, {"name": "unknown_12", "op": "Const", "attr": {"value": {"tensor": {"dtype": "DT_FLOAT", "tensorShape": {"dim": [{"size": "3"}, {"size": "3"}, {"size": "64"}, {"size": "64"}]}}}, "dtype": {"type": "DT_FLOAT"}}}, {"name": "unknown_13", "op": "Const", "attr": {"value": {"tensor": {"dtype": "DT_FLOAT", "tensorShape": {"dim": [{"size": "64"}]}}}, "dtype": {"type": "DT_FLOAT"}}}, {"name": "unknown_14", "op": "Const", "attr": {"value": {"tensor": {"dtype": "DT_FLOAT", "tensorShape": {"dim": [{"size": "1"}, {"size": "1"}, {"size": "64"}, {"size": "256"}]}}}, "dtype": {"type": "DT_FLOAT"}}}, {"name": "PartitionedCall/model/tf.math.add_7/ArithmeticOptimizer/AddOpsRewrite_Leaf_0_Add", "op": "Const", "attr": {"value": {"tensor": {"dtype": "DT_FLOAT", "tensorShape": {"dim": [{"size": "256"}]}}}, "dtype": {"type": "DT_FLOAT"}}}, {"name": "unknown_2", "op": "Const", "attr": {"value": {"tensor": {"dtype": "DT_FLOAT", "tensorShape": {"dim": [{"size": "1"}, {"size": "1"}, {"size": "64"}, {"size": "64"}]}}}, "dtype": {"type": "DT_FLOAT"}}}, {"name": "unknown_3", "op": "Const", "attr": {"value": {"tensor": {"dtype": "DT_FLOAT", "tensorShape": {"dim": [{"size": "64"}]}}}, "dtype": {"type": "DT_FLOAT"}}}, {"name": "unknown_4", "op": "Const", "attr": {"value": {"tensor": {"dtype": "DT_FLOAT", "tensorShape": {"dim": [{"size": "3"}, {"size": "3"}, {"size": "64"}, {"size": "64"}]}}}, "dtype": {"type": "DT_FLOAT"}}}, {"name": "unknown_5", "op": "Const", "attr": {"value": {"tensor": {"dtype": "DT_FLOAT", "tensorShape": {"dim": [{"size": "64"}]}}}, "dtype": {"type": "DT_FLOAT"}}}, {"name": "unknown_7", "op": "Const", "attr": {"value": {"tensor": {"dtype": "DT_FLOAT", "tensorShape": {"dim": [{"size": "1"}, {"size": "1"}, {"size": "64"}, {"size": "256"}]}}}, "dtype": {"type": "DT_FLOAT"}}}, {"name": "unknown", "op": "Const", "attr": {"value": {"tensor": {"dtype": "DT_INT32", "tensorShape": {"dim": [{"size": "4"}, {"size": "2"}]}}}, "dtype": {"type": "DT_INT32"}}}, {"name": "unknown_0", "op": "Const", "attr": {"value": {"tensor": {"dtype": "DT_FLOAT", "tensorShape": {"dim": [{"size": "7"}, {"size": "7"}, {"size": "3"}, {"size": "64"}]}}}, "dtype": {"type": "DT_FLOAT"}}}, {"name": "unknown_1", "op": "Const", "attr": {"value": {"tensor": {"dtype": "DT_FLOAT", "tensorShape": {"dim": [{"size": "64"}]}}}, "dtype": {"type": "DT_FLOAT"}}}, {"name": "PartitionedCall/model/tf.compat.v1.pad_2/PadV2/paddings", "op": "Const", "attr": {"value": {"tensor": {"dtype": "DT_INT32", "tensorShape": {"dim": [{"size": "4"}, {"size": "2"}]}}}, "dtype": {"type": "DT_INT32"}}}, {"name": "PartitionedCall/model/tf.compat.v1.pad_2/PadV2/constant_values", "op": "Const", "attr": {"value": {"tensor": {"dtype": "DT_FLOAT", "tensorShape": {}}}, "dtype": {"type": "DT_FLOAT"}}}, {"name": "unknown_6", "op": "Const", "attr": {"value": {"tensor": {"dtype": "DT_FLOAT", "tensorShape": {"dim": [{"size": "1"}, {"size": "1"}, {"size": "64"}, {"size": "256"}]}}}, "dtype": {"type": "DT_FLOAT"}}}, {"name": "unknown_27", "op": "Const", "attr": {"value": {"tensor": {"dtype": "DT_FLOAT", "tensorShape": {"dim": [{"size": "1"}, {"size": "1"}, {"size": "256"}, {"size": "512"}]}}}, "dtype": {"type": "DT_FLOAT"}}}, {"name": "unknown_30", "op": "Const", "attr": {"value": {"tensor": {"dtype": "DT_FLOAT", "tensorShape": {"dim": [{"size": "512"}]}}}, "dtype": {"type": "DT_FLOAT"}}}, {"name": "unknown_54", "op": "Const", "attr": {"value": {"tensor": {"dtype": "DT_FLOAT", "tensorShape": {"dim": [{"size": "1"}, {"size": "1"}, {"size": "512"}, {"size": "1024"}]}}}, "dtype": {"type": "DT_FLOAT"}}}, {"name": "unknown_57", "op": "Const", "attr": {"value": {"tensor": {"dtype": "DT_FLOAT", "tensorShape": {"dim": [{"size": "1024"}]}}}, "dtype": {"type": "DT_FLOAT"}}}, {"name": "unknown_93", "op": "Const", "attr": {"value": {"tensor": {"dtype": "DT_FLOAT", "tensorShape": {"dim": [{"size": "1"}, {"size": "1"}, {"size": "1024"}, {"size": "2048"}]}}}, "dtype": {"type": "DT_FLOAT"}}}, {"name": "unknown_96", "op": "Const", "attr": {"value": {"tensor": {"dtype": "DT_FLOAT", "tensorShape": {"dim": [{"size": "2048"}]}}}, "dtype": {"type": "DT_FLOAT"}}}, {"name": "PartitionedCall/model/tf.math.reduce_mean_1/Mean/reduction_indices", "op": "Const", "attr": {"value": {"tensor": {"dtype": "DT_INT32", "tensorShape": {"dim": [{"size": "2"}]}}}, "dtype": {"type": "DT_INT32"}}}, {"name": "PartitionedCall/model/tf.__operators__.add_1/AddV2", "op": "Const", "attr": {"value": {"tensor": {"dtype": "DT_INT64", "tensorShape": {}}}, "dtype": {"type": "DT_INT64"}}}, {"name": "PartitionedCall/model/tf.compat.v1.gather_1/GatherV2/axis", "op": "Const", "attr": {"value": {"tensor": {"dtype": "DT_INT32", "tensorShape": {}}}, "dtype": {"type": "DT_INT32"}}}, {"name": "PartitionedCall/model/tf.expand_dims_1/ExpandDims/dim", "op": "Const", "attr": {"value": {"tensor": {"dtype": "DT_INT32", "tensorShape": {}}}, "dtype": {"type": "DT_INT32"}}}, {"name": "unknown_119", "op": "Const", "attr": {"value": {"tensor": {"dtype": "DT_INT64", "tensorShape": {"dim": [{"size": "1"}]}}}, "dtype": {"type": "DT_INT64"}}}, {"name": "PartitionedCall/model/tf.concat_1/concat/axis", "op": "Const", "attr": {"value": {"tensor": {"dtype": "DT_INT32", "tensorShape": {}}}, "dtype": {"type": "DT_INT32"}}}, {"name": "PartitionedCall/model/tf.compat.v1.transpose_2/transpose/perm", "op": "Const", "attr": {"value": {"tensor": {"dtype": "DT_INT32", "tensorShape": {"dim": [{"size": "4"}]}}}, "dtype": {"type": "DT_INT32"}}}, {"name": "unknown_104", "op": "Const", "attr": {"value": {"tensor": {"dtype": "DT_INT32", "tensorShape": {"dim": [{"size": "4"}, {"size": "2"}]}}}, "dtype": {"type": "DT_INT32"}}}, {"name": "unknown_106", "op": "Const", "attr": {"value": {"tensor": {"dtype": "DT_FLOAT", "tensorShape": {"dim": [{"size": "7"}, {"size": "7"}, {"size": "3"}, {"size": "64"}]}}}, "dtype": {"type": "DT_FLOAT"}}}, {"name": "unknown_107", "op": "Const", "attr": {"value": {"tensor": {"dtype": "DT_FLOAT", "tensorShape": {"dim": [{"size": "64"}]}}}, "dtype": {"type": "DT_FLOAT"}}}, {"name": "PartitionedCall/model/tf.compat.v1.pad_3/PadV2/paddings", "op": "Const", "attr": {"value": {"tensor": {"dtype": "DT_INT32", "tensorShape": {"dim": [{"size": "4"}, {"size": "2"}]}}}, "dtype": {"type": "DT_INT32"}}}, {"name": "PartitionedCall/model/tf.compat.v1.pad_3/PadV2/constant_values", "op": "Const", "attr": {"value": {"tensor": {"dtype": "DT_FLOAT", "tensorShape": {}}}, "dtype": {"type": "DT_FLOAT"}}}, {"name": "unknown_111", "op": "Const", "attr": {"value": {"tensor": {"dtype": "DT_FLOAT", "tensorShape": {"dim": [{"size": "3"}, {"size": "3"}, {"size": "64"}, {"size": "128"}]}}}, "dtype": {"type": "DT_FLOAT"}}}, {"name": "unknown_113", "op": "Const", "attr": {"value": {"tensor": {"dtype": "DT_FLOAT", "tensorShape": {"dim": [{"size": "128"}]}}}, "dtype": {"type": "DT_FLOAT"}}}, {"name": "PartitionedCall/model/tf.math.reduce_mean/Mean/reduction_indices", "op": "Const", "attr": {"value": {"tensor": {"dtype": "DT_INT32", "tensorShape": {"dim": [{"size": "2"}]}}}, "dtype": {"type": "DT_INT32"}}}, {"name": "PartitionedCall/model/tf.__operators__.add/AddV2", "op": "Const", "attr": {"value": {"tensor": {"dtype": "DT_INT64", "tensorShape": {}}}, "dtype": {"type": "DT_INT64"}}}, {"name": "PartitionedCall/model/tf.compat.v1.gather/GatherV2/axis", "op": "Const", "attr": {"value": {"tensor": {"dtype": "DT_INT32", "tensorShape": {}}}, "dtype": {"type": "DT_INT32"}}}, {"name": "PartitionedCall/model/tf.expand_dims/ExpandDims/dim", "op": "Const", "attr": {"value": {"tensor": {"dtype": "DT_INT32", "tensorShape": {}}}, "dtype": {"type": "DT_INT32"}}}, {"name": "unknown_118", "op": "Const", "attr": {"value": {"tensor": {"dtype": "DT_INT64", "tensorShape": {"dim": [{"size": "1"}]}}}, "dtype": {"type": "DT_INT64"}}}, {"name": "PartitionedCall/model/tf.concat/concat/axis", "op": "Const", "attr": {"value": {"tensor": {"dtype": "DT_INT32", "tensorShape": {}}}, "dtype": {"type": "DT_INT32"}}}, {"name": "PartitionedCall/model/tf.concat_2/concat/axis", "op": "Const", "attr": {"value": {"tensor": {"dtype": "DT_INT32", "tensorShape": {}}}, "dtype": {"type": "DT_INT32"}}}, {"name": "PartitionedCall/model/flatten/strided_slice/stack", "op": "Const", "attr": {"value": {"tensor": {"dtype": "DT_INT32", "tensorShape": {"dim": [{"size": "1"}]}}}, "dtype": {"type": "DT_INT32"}}}, {"name": "PartitionedCall/model/flatten/strided_slice/stack_1", "op": "Const", "attr": {"value": {"tensor": {"dtype": "DT_INT32", "tensorShape": {"dim": [{"size": "1"}]}}}, "dtype": {"type": "DT_INT32"}}}, {"name": "PartitionedCall/model/flatten/strided_slice/stack_2", "op": "Const", "attr": {"value": {"tensor": {"dtype": "DT_INT32", "tensorShape": {"dim": [{"size": "1"}]}}}, "dtype": {"type": "DT_INT32"}}}, {"name": "PartitionedCall/model/flatten/Reshape/shape/1", "op": "Const", "attr": {"value": {"tensor": {"dtype": "DT_INT32", "tensorShape": {}}}, "dtype": {"type": "DT_INT32"}}}, {"name": "unknown_120", "op": "Const", "attr": {"value": {"tensor": {"dtype": "DT_FLOAT", "tensorShape": {"dim": [{"size": "2176"}, {"size": "20"}]}}}, "dtype": {"type": "DT_FLOAT"}}}, {"name": "unknown_122", "op": "Const", "attr": {"value": {"tensor": {"dtype": "DT_FLOAT", "tensorShape": {"dim": [{"size": "20"}]}}}, "dtype": {"type": "DT_FLOAT"}}}, {"name": "input", "op": "Placeholder", "attr": {"shape": {"shape": {"dim": [{"size": "-1"}, {"size": "224"}, {"size": "224"}, {"size": "3"}]}}, "dtype": {"type": "DT_FLOAT"}}}, {"name": "PartitionedCall/model/tf.compat.v1.pad/Pad", "op": "Pad", "input": ["input", "unknown"], "attr": {"Tpaddings": {"type": "DT_INT32"}, "T": {"type": "DT_FLOAT"}}}, {"name": "PartitionedCall/model/tf.compat.v1.pad_1/Pad", "op": "Pad", "input": ["input", "unknown_104"], "attr": {"Tpaddings": {"type": "DT_INT32"}, "T": {"type": "DT_FLOAT"}}}, {"name": "PartitionedCall/model/tf.nn.relu/Relu", "op": "_FusedConv2D", "input": ["PartitionedCall/model/tf.compat.v1.pad/Pad", "unknown_0", "unknown_1"], "device": "/device:CPU:0", "attr": {"num_host_args": {"i": "0"}, "data_format": {"s": "TkhXQw=="}, "filter_format": {"s": "SFdJTw=="}, "_input_shapes": {"list": {"shape": [{"dim": [{"size": "-2"}, {"size": "-17"}, {"size": "-18"}, {"size": "-16"}]}, {"dim": [{"size": "7"}, {"size": "7"}, {"size": "3"}, {"size": "64"}]}]}}, "strides": {"list": {"i": ["1", "2", "2", "1"]}}, "num_args": {"i": "1"}, "fused_ops": {"list": {"s": ["Qmlhc0FkZA==", "UmVsdQ=="]}}, "TArgs": {"list": {"type": ["DT_FLOAT"]}}, "padding": {"s": "VkFMSUQ="}, "use_cudnn_on_gpu": {"b": true}, "leakyrelu_alpha": {"f": 0.2}, "epsilon": {"f": 0.0}, "T": {"type": "DT_FLOAT"}, "explicit_paddings": {"list": {}}, "dilations": {"list": {"i": ["1", "1", "1", "1"]}}}}, {"name": "PartitionedCall/model/tf.nn.relu_1/Relu", "op": "_FusedConv2D", "input": ["PartitionedCall/model/tf.compat.v1.pad_1/Pad", "unknown_106", "unknown_107"], "device": "/device:CPU:0", "attr": {"num_host_args": {"i": "0"}, "_input_shapes": {"list": {"shape": [{"dim": [{"size": "-42"}, {"size": "-43"}, {"size": "-44"}, {"size": "-45"}]}, {"dim": [{"size": "7"}, {"size": "7"}, {"size": "3"}, {"size": "64"}]}]}}, "filter_format": {"s": "SFdJTw=="}, "data_format": {"s": "TkhXQw=="}, "fused_ops": {"list": {"s": ["Qmlhc0FkZA==", "UmVsdQ=="]}}, "num_args": {"i": "1"}, "strides": {"list": {"i": ["1", "2", "2", "1"]}}, "TArgs": {"list": {"type": ["DT_FLOAT"]}}, "padding": {"s": "VkFMSUQ="}, "use_cudnn_on_gpu": {"b": true}, "leakyrelu_alpha": {"f": 0.2}, "epsilon": {"f": 0.0}, "T": {"type": "DT_FLOAT"}, "explicit_paddings": {"list": {}}, "dilations": {"list": {"i": ["1", "1", "1", "1"]}}}}, {"name": "PartitionedCall/model/tf.compat.v1.pad_2/PadV2", "op": "PadV2", "input": ["PartitionedCall/model/tf.nn.relu/Relu", "PartitionedCall/model/tf.compat.v1.pad_2/PadV2/paddings", "PartitionedCall/model/tf.compat.v1.pad_2/PadV2/constant_values"], "attr": {"Tpaddings": {"type": "DT_INT32"}, "T": {"type": "DT_FLOAT"}}}, {"name": "PartitionedCall/model/tf.compat.v1.pad_3/PadV2", "op": "PadV2", "input": ["PartitionedCall/model/tf.nn.relu_1/Relu", "PartitionedCall/model/tf.compat.v1.pad_3/PadV2/paddings", "PartitionedCall/model/tf.compat.v1.pad_3/PadV2/constant_values"], "attr": {"Tpaddings": {"type": "DT_INT32"}, "T": {"type": "DT_FLOAT"}}}, {"name": "PartitionedCall/model/tf.nn.max_pool2d/MaxPool2d", "op": "MaxPool", "input": ["PartitionedCall/model/tf.compat.v1.pad_2/PadV2"], "attr": {"padding": {"s": "VkFMSUQ="}, "data_format": {"s": "TkhXQw=="}, "T": {"type": "DT_FLOAT"}, "explicit_paddings": {"list": {}}, "ksize": {"list": {"i": ["1", "3", "3", "1"]}}, "strides": {"list": {"i": ["1", "2", "2", "1"]}}}}, {"name": "PartitionedCall/model/tf.nn.max_pool2d_1/MaxPool2d", "op": "MaxPool", "input": ["PartitionedCall/model/tf.compat.v1.pad_3/PadV2"], "attr": {"padding": {"s": "VkFMSUQ="}, "data_format": {"s": "TkhXQw=="}, "T": {"type": "DT_FLOAT"}, "explicit_paddings": {"list": {}}, "ksize": {"list": {"i": ["1", "3", "3", "1"]}}, "strides": {"list": {"i": ["1", "2", "2", "1"]}}}}, {"name": "PartitionedCall/model/tf.nn.relu_2/Relu", "op": "_FusedConv2D", "input": ["PartitionedCall/model/tf.nn.max_pool2d/MaxPool2d", "unknown_2", "unknown_3"], "device": "/device:CPU:0", "attr": {"num_host_args": {"i": "0"}, "data_format": {"s": "TkhXQw=="}, "filter_format": {"s": "SFdJTw=="}, "_input_shapes": {"list": {"shape": [{"dim": [{"size": "-2"}, {"size": "-3"}, {"size": "-4"}, {"size": "64"}]}, {"dim": [{"size": "1"}, {"size": "1"}, {"size": "64"}, {"size": "64"}]}]}}, "fused_ops": {"list": {"s": ["Qmlhc0FkZA==", "UmVsdQ=="]}}, "num_args": {"i": "1"}, "strides": {"list": {"i": ["1", "1", "1", "1"]}}, "TArgs": {"list": {"type": ["DT_FLOAT"]}}, "padding": {"s": "U0FNRQ=="}, "use_cudnn_on_gpu": {"b": true}, "leakyrelu_alpha": {"f": 0.2}, "epsilon": {"f": 0.0}, "T": {"type": "DT_FLOAT"}, "explicit_paddings": {"list": {}}, "dilations": {"list": {"i": ["1", "1", "1", "1"]}}}}, {"name": "PartitionedCall/model/tf.nn.convolution_3/convolution", "op": "Conv2D", "input": ["PartitionedCall/model/tf.nn.max_pool2d/MaxPool2d", "unknown_6"], "device": "/device:CPU:0", "attr": {"padding": {"s": "U0FNRQ=="}, "_input_shapes": {"list": {"shape": [{"dim": [{"size": "-2"}, {"size": "-3"}, {"size": "-4"}, {"size": "64"}]}, {"dim": [{"size": "1"}, {"size": "1"}, {"size": "64"}, {"size": "256"}]}]}}, "data_format": {"s": "TkhXQw=="}, "use_cudnn_on_gpu": {"b": true}, "strides": {"list": {"i": ["1", "1", "1", "1"]}}, "T": {"type": "DT_FLOAT"}, "explicit_paddings": {"list": {}}, "dilations": {"list": {"i": ["1", "1", "1", "1"]}}}}, {"name": "PartitionedCall/model/tf.nn.relu_3/Relu", "op": "_FusedConv2D", "input": ["PartitionedCall/model/tf.nn.max_pool2d_1/MaxPool2d", "unknown_111", "unknown_113"], "device": "/device:CPU:0", "attr": {"num_host_args": {"i": "0"}, "data_format": {"s": "TkhXQw=="}, "filter_format": {"s": "SFdJTw=="}, "_input_shapes": {"list": {"shape": [{"dim": [{"size": "-42"}, {"size": "-50"}, {"size": "-51"}, {"size": "64"}]}, {"dim": [{"size": "3"}, {"size": "3"}, {"size": "64"}, {"size": "128"}]}]}}, "fused_ops": {"list": {"s": ["Qmlhc0FkZA==", "UmVsdQ=="]}}, "num_args": {"i": "1"}, "strides": {"list": {"i": ["1", "1", "1", "1"]}}, "TArgs": {"list": {"type": ["DT_FLOAT"]}}, "padding": {"s": "U0FNRQ=="}, "use_cudnn_on_gpu": {"b": true}, "leakyrelu_alpha": {"f": 0.2}, "epsilon": {"f": 0.0}, "T": {"type": "DT_FLOAT"}, "explicit_paddings": {"list": {}}, "dilations": {"list": {"i": ["1", "1", "1", "1"]}}}}, {"name": "PartitionedCall/model/tf.nn.relu_4/Relu", "op": "_FusedConv2D", "input": ["PartitionedCall/model/tf.nn.relu_2/Relu", "unknown_4", "unknown_5"], "device": "/device:CPU:0", "attr": {"num_host_args": {"i": "0"}, "_input_shapes": {"list": {"shape": [{"dim": [{"size": "-2"}, {"size": "-3"}, {"size": "-4"}, {"size": "64"}]}, {"dim": [{"size": "3"}, {"size": "3"}, {"size": "64"}, {"size": "64"}]}]}}, "filter_format": {"s": "SFdJTw=="}, "data_format": {"s": "TkhXQw=="}, "strides": {"list": {"i": ["1", "1", "1", "1"]}}, "num_args": {"i": "1"}, "fused_ops": {"list": {"s": ["Qmlhc0FkZA==", "UmVsdQ=="]}}, "TArgs": {"list": {"type": ["DT_FLOAT"]}}, "padding": {"s": "U0FNRQ=="}, "use_cudnn_on_gpu": {"b": true}, "leakyrelu_alpha": {"f": 0.2}, "epsilon": {"f": 0.0}, "T": {"type": "DT_FLOAT"}, "explicit_paddings": {"list": {}}, "dilations": {"list": {"i": ["1", "1", "1", "1"]}}}}, {"name": "PartitionedCall/model/tf.math.reduce_mean/Mean", "op": "Mean", "input": ["PartitionedCall/model/tf.nn.relu_3/Relu", "PartitionedCall/model/tf.math.reduce_mean/Mean/reduction_indices"], "attr": {"Tidx": {"type": "DT_INT32"}, "T": {"type": "DT_FLOAT"}, "keep_dims": {"b": true}}}, {"name": "PartitionedCall/model/tf.nn.convolution_6/convolution", "op": "Conv2D", "input": ["PartitionedCall/model/tf.nn.relu_4/Relu", "unknown_7"], "device": "/device:CPU:0", "attr": {"padding": {"s": "U0FNRQ=="}, "data_format": {"s": "TkhXQw=="}, "_input_shapes": {"list": {"shape": [{"dim": [{"size": "-2"}, {"size": "-3"}, {"size": "-4"}, {"size": "64"}]}, {"dim": [{"size": "1"}, {"size": "1"}, {"size": "64"}, {"size": "256"}]}]}}, "use_cudnn_on_gpu": {"b": true}, "strides": {"list": {"i": ["1", "1", "1", "1"]}}, "T": {"type": "DT_FLOAT"}, "explicit_paddings": {"list": {}}, "dilations": {"list": {"i": ["1", "1", "1", "1"]}}}}, {"name": "PartitionedCall/model/tf.compat.v1.transpose_2/transpose", "op": "Transpose", "input": ["PartitionedCall/model/tf.math.reduce_mean/Mean", "PartitionedCall/model/tf.compat.v1.transpose_2/transpose/perm"], "attr": {"Tperm": {"type": "DT_INT32"}, "_input_shapes": {"list": {"shape": [{"dim": [{"size": "-42"}, {"size": "1"}, {"size": "1"}, {"size": "128"}]}, {"dim": [{"size": "4"}]}]}}, "T": {"type": "DT_FLOAT"}}}, {"name": "PartitionedCall/model/tf.compat.v1.shape/wa/cnn/Shape", "op": "Shape", "input": ["PartitionedCall/model/tf.math.reduce_mean/Mean"], "attr": {"T": {"type": "DT_FLOAT"}, "out_type": {"type": "DT_INT64"}}, "experimentalType": {"typeId": "TFT_PRODUCT", "args": [{"typeId": "TFT_SHAPE_TENSOR", "args": [{"typeId": "TFT_INT64"}]}]}}, {"name": "PartitionedCall/model/tf.math.add_7/ArithmeticOptimizer/AddOpsRewrite_Leaf_1_Add", "op": "AddN", "input": ["PartitionedCall/model/tf.nn.convolution_6/convolution", "PartitionedCall/model/tf.nn.convolution_3/convolution"], "attr": {"N": {"i": "2"}, "T": {"type": "DT_FLOAT"}, "_grappler_ArithmeticOptimizer_AddOpsRewriteStage": {"b": true}}}, {"name": "PartitionedCall/model/tf.compat.v1.gather/GatherV2", "op": "GatherV2", "input": ["PartitionedCall/model/tf.compat.v1.shape/wa/cnn/Shape", "PartitionedCall/model/tf.__operators__.add/AddV2", "PartitionedCall/model/tf.compat.v1.gather/GatherV2/axis"], "attr": {"Tparams": {"type": "DT_INT64"}, "Taxis": {"type": "DT_INT32"}, "Tindices": {"type": "DT_INT64"}, "batch_dims": {"i": "0"}}}, {"name": "PartitionedCall/model/tf.math.add_7/ArithmeticOptimizer/AddOpsRewrite_Add", "op": "AddV2", "input": ["PartitionedCall/model/tf.math.add_7/ArithmeticOptimizer/AddOpsRewrite_Leaf_0_Add", "PartitionedCall/model/tf.math.add_7/ArithmeticOptimizer/AddOpsRewrite_Leaf_1_Add"], "attr": {"T": {"type": "DT_FLOAT"}, "_grappler_ArithmeticOptimizer_AddOpsRewriteStage": {"b": true}}}, {"name": "PartitionedCall/model/tf.expand_dims/ExpandDims", "op": "ExpandDims", "input": ["PartitionedCall/model/tf.compat.v1.gather/GatherV2", "PartitionedCall/model/tf.expand_dims/ExpandDims/dim"], "attr": {"Tdim": {"type": "DT_INT32"}, "T": {"type": "DT_INT64"}}}, {"name": "PartitionedCall/model/tf.nn.relu_5/Relu", "op": "Relu", "input": ["PartitionedCall/model/tf.math.add_7/ArithmeticOptimizer/AddOpsRewrite_Add"], "attr": {"T": {"type": "DT_FLOAT"}}}, {"name": "PartitionedCall/model/tf.concat/concat", "op": "ConcatV2", "input": ["PartitionedCall/model/tf.expand_dims/ExpandDims", "unknown_118", "PartitionedCall/model/tf.concat/concat/axis"], "attr": {"N": {"i": "2"}, "T": {"type": "DT_INT64"}, "Tidx": {"type": "DT_INT32"}}}, {"name": "PartitionedCall/model/tf.nn.relu_6/Relu", "op": "_FusedConv2D", "input": ["PartitionedCall/model/tf.nn.relu_5/Relu", "unknown_10", "unknown_11"], "device": "/device:CPU:0", "attr": {"num_host_args": {"i": "0"}, "_input_shapes": {"list": {"shape": [{"dim": [{"size": "-2"}, {"size": "-3"}, {"size": "-4"}, {"size": "256"}]}, {"dim": [{"size": "1"}, {"size": "1"}, {"size": "256"}, {"size": "64"}]}]}}, "filter_format": {"s": "SFdJTw=="}, "data_format": {"s": "TkhXQw=="}, "strides": {"list": {"i": ["1", "1", "1", "1"]}}, "num_args": {"i": "1"}, "fused_ops": {"list": {"s": ["Qmlhc0FkZA==", "UmVsdQ=="]}}, "TArgs": {"list": {"type": ["DT_FLOAT"]}}, "padding": {"s": "U0FNRQ=="}, "use_cudnn_on_gpu": {"b": true}, "leakyrelu_alpha": {"f": 0.2}, "epsilon": {"f": 0.0}, "T": {"type": "DT_FLOAT"}, "explicit_paddings": {"list": {}}, "dilations": {"list": {"i": ["1", "1", "1", "1"]}}}}, {"name": "PartitionedCall/model/tf.reshape/Reshape", "op": "Reshape", "input": ["PartitionedCall/model/tf.compat.v1.transpose_2/transpose", "PartitionedCall/model/tf.concat/concat"], "attr": {"T": {"type": "DT_FLOAT"}, "Tshape": {"type": "DT_INT64"}}}, {"name": "PartitionedCall/model/tf.nn.relu_7/Relu", "op": "_FusedConv2D", "input": ["PartitionedCall/model/tf.nn.relu_6/Relu", "unknown_12", "unknown_13"], "device": "/device:CPU:0", "attr": {"num_host_args": {"i": "0"}, "_input_shapes": {"list": {"shape": [{"dim": [{"size": "-2"}, {"size": "-3"}, {"size": "-4"}, {"size": "64"}]}, {"dim": [{"size": "3"}, {"size": "3"}, {"size": "64"}, {"size": "64"}]}]}}, "filter_format": {"s": "SFdJTw=="}, "data_format": {"s": "TkhXQw=="}, "fused_ops": {"list": {"s": ["Qmlhc0FkZA==", "UmVsdQ=="]}}, "num_args": {"i": "1"}, "strides": {"list": {"i": ["1", "1", "1", "1"]}}, "TArgs": {"list": {"type": ["DT_FLOAT"]}}, "padding": {"s": "U0FNRQ=="}, "use_cudnn_on_gpu": {"b": true}, "leakyrelu_alpha": {"f": 0.2}, "epsilon": {"f": 0.0}, "T": {"type": "DT_FLOAT"}, "explicit_paddings": {"list": {}}, "dilations": {"list": {"i": ["1", "1", "1", "1"]}}}}, {"name": "PartitionedCall/model/tf.nn.convolution_9/convolution", "op": "Conv2D", "input": ["PartitionedCall/model/tf.nn.relu_7/Relu", "unknown_14"], "device": "/device:CPU:0", "attr": {"padding": {"s": "U0FNRQ=="}, "data_format": {"s": "TkhXQw=="}, "_input_shapes": {"list": {"shape": [{"dim": [{"size": "-2"}, {"size": "-3"}, {"size": "-4"}, {"size": "64"}]}, {"dim": [{"size": "1"}, {"size": "1"}, {"size": "64"}, {"size": "256"}]}]}}, "strides": {"list": {"i": ["1", "1", "1", "1"]}}, "use_cudnn_on_gpu": {"b": true}, "T": {"type": "DT_FLOAT"}, "explicit_paddings": {"list": {}}, "dilations": {"list": {"i": ["1", "1", "1", "1"]}}}}, {"name": "PartitionedCall/model/tf.math.add_11/ArithmeticOptimizer/AddOpsRewrite_Leaf_1_Add", "op": "AddN", "input": ["PartitionedCall/model/tf.nn.convolution_9/convolution", "PartitionedCall/model/tf.nn.relu_5/Relu"], "attr": {"N": {"i": "2"}, "T": {"type": "DT_FLOAT"}, "_grappler_ArithmeticOptimizer_AddOpsRewriteStage": {"b": true}}}, {"name": "PartitionedCall/model/tf.math.add_11/ArithmeticOptimizer/AddOpsRewrite_Add", "op": "AddV2", "input": ["unknown_15", "PartitionedCall/model/tf.math.add_11/ArithmeticOptimizer/AddOpsRewrite_Leaf_1_Add"], "attr": {"T": {"type": "DT_FLOAT"}, "_grappler_ArithmeticOptimizer_AddOpsRewriteStage": {"b": true}}}, {"name": "PartitionedCall/model/tf.nn.relu_8/Relu", "op": "Relu", "input": ["PartitionedCall/model/tf.math.add_11/ArithmeticOptimizer/AddOpsRewrite_Add"], "attr": {"T": {"type": "DT_FLOAT"}}}, {"name": "PartitionedCall/model/tf.nn.relu_9/Relu", "op": "_FusedConv2D", "input": ["PartitionedCall/model/tf.nn.relu_8/Relu", "unknown_16", "unknown_17"], "device": "/device:CPU:0", "attr": {"num_host_args": {"i": "0"}, "data_format": {"s": "TkhXQw=="}, "filter_format": {"s": "SFdJTw=="}, "_input_shapes": {"list": {"shape": [{"dim": [{"size": "-2"}, {"size": "-3"}, {"size": "-4"}, {"size": "256"}]}, {"dim": [{"size": "1"}, {"size": "1"}, {"size": "256"}, {"size": "64"}]}]}}, "fused_ops": {"list": {"s": ["Qmlhc0FkZA==", "UmVsdQ=="]}}, "num_args": {"i": "1"}, "strides": {"list": {"i": ["1", "1", "1", "1"]}}, "TArgs": {"list": {"type": ["DT_FLOAT"]}}, "padding": {"s": "U0FNRQ=="}, "use_cudnn_on_gpu": {"b": true}, "leakyrelu_alpha": {"f": 0.2}, "epsilon": {"f": 0.0}, "T": {"type": "DT_FLOAT"}, "explicit_paddings": {"list": {}}, "dilations": {"list": {"i": ["1", "1", "1", "1"]}}}}, {"name": "PartitionedCall/model/tf.nn.relu_10/Relu", "op": "_FusedConv2D", "input": ["PartitionedCall/model/tf.nn.relu_9/Relu", "unknown_18", "unknown_19"], "device": "/device:CPU:0", "attr": {"num_host_args": {"i": "0"}, "data_format": {"s": "TkhXQw=="}, "filter_format": {"s": "SFdJTw=="}, "_input_shapes": {"list": {"shape": [{"dim": [{"size": "-2"}, {"size": "-3"}, {"size": "-4"}, {"size": "64"}]}, {"dim": [{"size": "3"}, {"size": "3"}, {"size": "64"}, {"size": "64"}]}]}}, "strides": {"list": {"i": ["1", "1", "1", "1"]}}, "num_args": {"i": "1"}, "fused_ops": {"list": {"s": ["Qmlhc0FkZA==", "UmVsdQ=="]}}, "TArgs": {"list": {"type": ["DT_FLOAT"]}}, "padding": {"s": "U0FNRQ=="}, "use_cudnn_on_gpu": {"b": true}, "leakyrelu_alpha": {"f": 0.2}, "epsilon": {"f": 0.0}, "T": {"type": "DT_FLOAT"}, "explicit_paddings": {"list": {}}, "dilations": {"list": {"i": ["1", "1", "1", "1"]}}}}, {"name": "PartitionedCall/model/tf.nn.convolution_12/convolution", "op": "Conv2D", "input": ["PartitionedCall/model/tf.nn.relu_10/Relu", "unknown_20"], "device": "/device:CPU:0", "attr": {"padding": {"s": "U0FNRQ=="}, "data_format": {"s": "TkhXQw=="}, "_input_shapes": {"list": {"shape": [{"dim": [{"size": "-2"}, {"size": "-3"}, {"size": "-4"}, {"size": "64"}]}, {"dim": [{"size": "1"}, {"size": "1"}, {"size": "64"}, {"size": "256"}]}]}}, "strides": {"list": {"i": ["1", "1", "1", "1"]}}, "use_cudnn_on_gpu": {"b": true}, "T": {"type": "DT_FLOAT"}, "explicit_paddings": {"list": {}}, "dilations": {"list": {"i": ["1", "1", "1", "1"]}}}}, {"name": "PartitionedCall/model/tf.math.add_15/ArithmeticOptimizer/AddOpsRewrite_Leaf_1_Add", "op": "AddN", "input": ["PartitionedCall/model/tf.nn.convolution_12/convolution", "PartitionedCall/model/tf.nn.relu_8/Relu"], "attr": {"N": {"i": "2"}, "T": {"type": "DT_FLOAT"}, "_grappler_ArithmeticOptimizer_AddOpsRewriteStage": {"b": true}}}, {"name": "PartitionedCall/model/tf.math.add_15/ArithmeticOptimizer/AddOpsRewrite_Add", "op": "AddV2", "input": ["unknown_21", "PartitionedCall/model/tf.math.add_15/ArithmeticOptimizer/AddOpsRewrite_Leaf_1_Add"], "attr": {"T": {"type": "DT_FLOAT"}, "_grappler_ArithmeticOptimizer_AddOpsRewriteStage": {"b": true}}}, {"name": "PartitionedCall/model/tf.nn.relu_11/Relu", "op": "Relu", "input": ["PartitionedCall/model/tf.math.add_15/ArithmeticOptimizer/AddOpsRewrite_Add"], "attr": {"T": {"type": "DT_FLOAT"}}}, {"name": "PartitionedCall/model/tf.nn.relu_12/Relu", "op": "_FusedConv2D", "input": ["PartitionedCall/model/tf.nn.relu_11/Relu", "unknown_22", "unknown_23"], "device": "/device:CPU:0", "attr": {"num_host_args": {"i": "0"}, "_input_shapes": {"list": {"shape": [{"dim": [{"size": "-2"}, {"size": "-3"}, {"size": "-4"}, {"size": "256"}]}, {"dim": [{"size": "1"}, {"size": "1"}, {"size": "256"}, {"size": "128"}]}]}}, "filter_format": {"s": "SFdJTw=="}, "data_format": {"s": "TkhXQw=="}, "strides": {"list": {"i": ["1", "1", "1", "1"]}}, "num_args": {"i": "1"}, "fused_ops": {"list": {"s": ["Qmlhc0FkZA==", "UmVsdQ=="]}}, "TArgs": {"list": {"type": ["DT_FLOAT"]}}, "padding": {"s": "U0FNRQ=="}, "use_cudnn_on_gpu": {"b": true}, "leakyrelu_alpha": {"f": 0.2}, "epsilon": {"f": 0.0}, "T": {"type": "DT_FLOAT"}, "explicit_paddings": {"list": {}}, "dilations": {"list": {"i": ["1", "1", "1", "1"]}}}}, {"name": "PartitionedCall/model/tf.math.add_17/Add", "op": "_FusedConv2D", "input": ["PartitionedCall/model/tf.nn.relu_11/Relu", "unknown_27", "unknown_30"], "device": "/device:CPU:0", "attr": {"num_host_args": {"i": "0"}, "data_format": {"s": "TkhXQw=="}, "filter_format": {"s": "SFdJTw=="}, "_input_shapes": {"list": {"shape": [{"dim": [{"size": "-2"}, {"size": "-3"}, {"size": "-4"}, {"size": "256"}]}, {"dim": [{"size": "1"}, {"size": "1"}, {"size": "256"}, {"size": "512"}]}]}}, "fused_ops": {"list": {"s": ["Qmlhc0FkZA=="]}}, "num_args": {"i": "1"}, "strides": {"list": {"i": ["1", "2", "2", "1"]}}, "TArgs": {"list": {"type": ["DT_FLOAT"]}}, "padding": {"s": "VkFMSUQ="}, "use_cudnn_on_gpu": {"b": true}, "leakyrelu_alpha": {"f": 0.2}, "epsilon": {"f": 0.0}, "T": {"type": "DT_FLOAT"}, "explicit_paddings": {"list": {}}, "dilations": {"list": {"i": ["1", "1", "1", "1"]}}}}, {"name": "PartitionedCall/model/tf.compat.v1.pad_4/Pad", "op": "Pad", "input": ["PartitionedCall/model/tf.nn.relu_12/Relu", "unknown_24"], "attr": {"Tpaddings": {"type": "DT_INT32"}, "T": {"type": "DT_FLOAT"}}}, {"name": "PartitionedCall/model/tf.nn.relu_13/Relu", "op": "_FusedConv2D", "input": ["PartitionedCall/model/tf.compat.v1.pad_4/Pad", "unknown_25", "unknown_26"], "device": "/device:CPU:0", "attr": {"num_host_args": {"i": "0"}, "data_format": {"s": "TkhXQw=="}, "filter_format": {"s": "SFdJTw=="}, "_input_shapes": {"list": {"shape": [{"dim": [{"size": "-2"}, {"size": "-23"}, {"size": "-24"}, {"size": "128"}]}, {"dim": [{"size": "3"}, {"size": "3"}, {"size": "128"}, {"size": "128"}]}]}}, "strides": {"list": {"i": ["1", "2", "2", "1"]}}, "num_args": {"i": "1"}, "fused_ops": {"list": {"s": ["Qmlhc0FkZA==", "UmVsdQ=="]}}, "TArgs": {"list": {"type": ["DT_FLOAT"]}}, "padding": {"s": "VkFMSUQ="}, "use_cudnn_on_gpu": {"b": true}, "leakyrelu_alpha": {"f": 0.2}, "epsilon": {"f": 0.0}, "T": {"type": "DT_FLOAT"}, "explicit_paddings": {"list": {}}, "dilations": {"list": {"i": ["1", "1", "1", "1"]}}}}, {"name": "PartitionedCall/model/tf.math.add_19/Add", "op": "_FusedConv2D", "input": ["PartitionedCall/model/tf.nn.relu_13/Relu", "unknown_28", "unknown_29"], "device": "/device:CPU:0", "attr": {"num_host_args": {"i": "0"}, "data_format": {"s": "TkhXQw=="}, "filter_format": {"s": "SFdJTw=="}, "_input_shapes": {"list": {"shape": [{"dim": [{"size": "-2"}, {"size": "-25"}, {"size": "-26"}, {"size": "128"}]}, {"dim": [{"size": "1"}, {"size": "1"}, {"size": "128"}, {"size": "512"}]}]}}, "fused_ops": {"list": {"s": ["Qmlhc0FkZA=="]}}, "num_args": {"i": "1"}, "strides": {"list": {"i": ["1", "1", "1", "1"]}}, "TArgs": {"list": {"type": ["DT_FLOAT"]}}, "padding": {"s": "U0FNRQ=="}, "use_cudnn_on_gpu": {"b": true}, "leakyrelu_alpha": {"f": 0.2}, "epsilon": {"f": 0.0}, "T": {"type": "DT_FLOAT"}, "explicit_paddings": {"list": {}}, "dilations": {"list": {"i": ["1", "1", "1", "1"]}}}}, {"name": "PartitionedCall/model/tf.math.add_20/Add", "op": "AddV2", "input": ["PartitionedCall/model/tf.math.add_19/Add", "PartitionedCall/model/tf.math.add_17/Add"], "attr": {"T": {"type": "DT_FLOAT"}}}, {"name": "PartitionedCall/model/tf.nn.relu_14/Relu", "op": "Relu", "input": ["PartitionedCall/model/tf.math.add_20/Add"], "attr": {"T": {"type": "DT_FLOAT"}}}, {"name": "PartitionedCall/model/tf.nn.relu_15/Relu", "op": "_FusedConv2D", "input": ["PartitionedCall/model/tf.nn.relu_14/Relu", "unknown_31", "unknown_32"], "device": "/device:CPU:0", "attr": {"num_host_args": {"i": "0"}, "data_format": {"s": "TkhXQw=="}, "filter_format": {"s": "SFdJTw=="}, "_input_shapes": {"list": {"shape": [{"dim": [{"size": "-2"}, {"size": "-5"}, {"size": "-6"}, {"size": "512"}]}, {"dim": [{"size": "1"}, {"size": "1"}, {"size": "512"}, {"size": "128"}]}]}}, "fused_ops": {"list": {"s": ["Qmlhc0FkZA==", "UmVsdQ=="]}}, "num_args": {"i": "1"}, "strides": {"list": {"i": ["1", "1", "1", "1"]}}, "TArgs": {"list": {"type": ["DT_FLOAT"]}}, "padding": {"s": "U0FNRQ=="}, "use_cudnn_on_gpu": {"b": true}, "leakyrelu_alpha": {"f": 0.2}, "epsilon": {"f": 0.0}, "T": {"type": "DT_FLOAT"}, "explicit_paddings": {"list": {}}, "dilations": {"list": {"i": ["1", "1", "1", "1"]}}}}, {"name": "PartitionedCall/model/tf.nn.relu_16/Relu", "op": "_FusedConv2D", "input": ["PartitionedCall/model/tf.nn.relu_15/Relu", "unknown_33", "unknown_34"], "device": "/device:CPU:0", "attr": {"num_host_args": {"i": "0"}, "data_format": {"s": "TkhXQw=="}, "filter_format": {"s": "SFdJTw=="}, "_input_shapes": {"list": {"shape": [{"dim": [{"size": "-2"}, {"size": "-5"}, {"size": "-6"}, {"size": "128"}]}, {"dim": [{"size": "3"}, {"size": "3"}, {"size": "128"}, {"size": "128"}]}]}}, "strides": {"list": {"i": ["1", "1", "1", "1"]}}, "num_args": {"i": "1"}, "fused_ops": {"list": {"s": ["Qmlhc0FkZA==", "UmVsdQ=="]}}, "TArgs": {"list": {"type": ["DT_FLOAT"]}}, "padding": {"s": "U0FNRQ=="}, "use_cudnn_on_gpu": {"b": true}, "leakyrelu_alpha": {"f": 0.2}, "epsilon": {"f": 0.0}, "T": {"type": "DT_FLOAT"}, "explicit_paddings": {"list": {}}, "dilations": {"list": {"i": ["1", "1", "1", "1"]}}}}, {"name": "PartitionedCall/model/tf.nn.convolution_19/convolution", "op": "Conv2D", "input": ["PartitionedCall/model/tf.nn.relu_16/Relu", "unknown_35"], "device": "/device:CPU:0", "attr": {"padding": {"s": "U0FNRQ=="}, "_input_shapes": {"list": {"shape": [{"dim": [{"size": "-2"}, {"size": "-5"}, {"size": "-6"}, {"size": "128"}]}, {"dim": [{"size": "1"}, {"size": "1"}, {"size": "128"}, {"size": "512"}]}]}}, "data_format": {"s": "TkhXQw=="}, "use_cudnn_on_gpu": {"b": true}, "strides": {"list": {"i": ["1", "1", "1", "1"]}}, "T": {"type": "DT_FLOAT"}, "explicit_paddings": {"list": {}}, "dilations": {"list": {"i": ["1", "1", "1", "1"]}}}}, {"name": "PartitionedCall/model/tf.math.add_24/ArithmeticOptimizer/AddOpsRewrite_Leaf_1_Add", "op": "AddN", "input": ["PartitionedCall/model/tf.nn.convolution_19/convolution", "PartitionedCall/model/tf.nn.relu_14/Relu"], "attr": {"N": {"i": "2"}, "T": {"type": "DT_FLOAT"}, "_grappler_ArithmeticOptimizer_AddOpsRewriteStage": {"b": true}}}, {"name": "PartitionedCall/model/tf.math.add_24/ArithmeticOptimizer/AddOpsRewrite_Add", "op": "AddV2", "input": ["unknown_36", "PartitionedCall/model/tf.math.add_24/ArithmeticOptimizer/AddOpsRewrite_Leaf_1_Add"], "attr": {"T": {"type": "DT_FLOAT"}, "_grappler_ArithmeticOptimizer_AddOpsRewriteStage": {"b": true}}}, {"name": "PartitionedCall/model/tf.nn.relu_17/Relu", "op": "Relu", "input": ["PartitionedCall/model/tf.math.add_24/ArithmeticOptimizer/AddOpsRewrite_Add"], "attr": {"T": {"type": "DT_FLOAT"}}}, {"name": "PartitionedCall/model/tf.nn.relu_18/Relu", "op": "_FusedConv2D", "input": ["PartitionedCall/model/tf.nn.relu_17/Relu", "unknown_37", "unknown_38"], "device": "/device:CPU:0", "attr": {"num_host_args": {"i": "0"}, "data_format": {"s": "TkhXQw=="}, "filter_format": {"s": "SFdJTw=="}, "_input_shapes": {"list": {"shape": [{"dim": [{"size": "-2"}, {"size": "-5"}, {"size": "-6"}, {"size": "512"}]}, {"dim": [{"size": "1"}, {"size": "1"}, {"size": "512"}, {"size": "128"}]}]}}, "fused_ops": {"list": {"s": ["Qmlhc0FkZA==", "UmVsdQ=="]}}, "num_args": {"i": "1"}, "strides": {"list": {"i": ["1", "1", "1", "1"]}}, "TArgs": {"list": {"type": ["DT_FLOAT"]}}, "padding": {"s": "U0FNRQ=="}, "use_cudnn_on_gpu": {"b": true}, "leakyrelu_alpha": {"f": 0.2}, "epsilon": {"f": 0.0}, "T": {"type": "DT_FLOAT"}, "explicit_paddings": {"list": {}}, "dilations": {"list": {"i": ["1", "1", "1", "1"]}}}}, {"name": "PartitionedCall/model/tf.nn.relu_19/Relu", "op": "_FusedConv2D", "input": ["PartitionedCall/model/tf.nn.relu_18/Relu", "unknown_39", "unknown_40"], "device": "/device:CPU:0", "attr": {"num_host_args": {"i": "0"}, "data_format": {"s": "TkhXQw=="}, "filter_format": {"s": "SFdJTw=="}, "_input_shapes": {"list": {"shape": [{"dim": [{"size": "-2"}, {"size": "-5"}, {"size": "-6"}, {"size": "128"}]}, {"dim": [{"size": "3"}, {"size": "3"}, {"size": "128"}, {"size": "128"}]}]}}, "fused_ops": {"list": {"s": ["Qmlhc0FkZA==", "UmVsdQ=="]}}, "num_args": {"i": "1"}, "strides": {"list": {"i": ["1", "1", "1", "1"]}}, "TArgs": {"list": {"type": ["DT_FLOAT"]}}, "padding": {"s": "U0FNRQ=="}, "use_cudnn_on_gpu": {"b": true}, "leakyrelu_alpha": {"f": 0.2}, "epsilon": {"f": 0.0}, "T": {"type": "DT_FLOAT"}, "explicit_paddings": {"list": {}}, "dilations": {"list": {"i": ["1", "1", "1", "1"]}}}}, {"name": "PartitionedCall/model/tf.nn.convolution_22/convolution", "op": "Conv2D", "input": ["PartitionedCall/model/tf.nn.relu_19/Relu", "unknown_41"], "device": "/device:CPU:0", "attr": {"padding": {"s": "U0FNRQ=="}, "_input_shapes": {"list": {"shape": [{"dim": [{"size": "-2"}, {"size": "-5"}, {"size": "-6"}, {"size": "128"}]}, {"dim": [{"size": "1"}, {"size": "1"}, {"size": "128"}, {"size": "512"}]}]}}, "data_format": {"s": "TkhXQw=="}, "use_cudnn_on_gpu": {"b": true}, "strides": {"list": {"i": ["1", "1", "1", "1"]}}, "T": {"type": "DT_FLOAT"}, "explicit_paddings": {"list": {}}, "dilations": {"list": {"i": ["1", "1", "1", "1"]}}}}, {"name": "PartitionedCall/model/tf.math.add_28/ArithmeticOptimizer/AddOpsRewrite_Leaf_1_Add", "op": "AddN", "input": ["PartitionedCall/model/tf.nn.convolution_22/convolution", "PartitionedCall/model/tf.nn.relu_17/Relu"], "attr": {"N": {"i": "2"}, "T": {"type": "DT_FLOAT"}, "_grappler_ArithmeticOptimizer_AddOpsRewriteStage": {"b": true}}}, {"name": "PartitionedCall/model/tf.math.add_28/ArithmeticOptimizer/AddOpsRewrite_Add", "op": "AddV2", "input": ["unknown_42", "PartitionedCall/model/tf.math.add_28/ArithmeticOptimizer/AddOpsRewrite_Leaf_1_Add"], "attr": {"T": {"type": "DT_FLOAT"}, "_grappler_ArithmeticOptimizer_AddOpsRewriteStage": {"b": true}}}, {"name": "PartitionedCall/model/tf.nn.relu_20/Relu", "op": "Relu", "input": ["PartitionedCall/model/tf.math.add_28/ArithmeticOptimizer/AddOpsRewrite_Add"], "attr": {"T": {"type": "DT_FLOAT"}}}, {"name": "PartitionedCall/model/tf.nn.relu_21/Relu", "op": "_FusedConv2D", "input": ["PartitionedCall/model/tf.nn.relu_20/Relu", "unknown_43", "unknown_44"], "device": "/device:CPU:0", "attr": {"num_host_args": {"i": "0"}, "_input_shapes": {"list": {"shape": [{"dim": [{"size": "-2"}, {"size": "-5"}, {"size": "-6"}, {"size": "512"}]}, {"dim": [{"size": "1"}, {"size": "1"}, {"size": "512"}, {"size": "128"}]}]}}, "filter_format": {"s": "SFdJTw=="}, "data_format": {"s": "TkhXQw=="}, "strides": {"list": {"i": ["1", "1", "1", "1"]}}, "num_args": {"i": "1"}, "fused_ops": {"list": {"s": ["Qmlhc0FkZA==", "UmVsdQ=="]}}, "TArgs": {"list": {"type": ["DT_FLOAT"]}}, "padding": {"s": "U0FNRQ=="}, "use_cudnn_on_gpu": {"b": true}, "leakyrelu_alpha": {"f": 0.2}, "epsilon": {"f": 0.0}, "T": {"type": "DT_FLOAT"}, "explicit_paddings": {"list": {}}, "dilations": {"list": {"i": ["1", "1", "1", "1"]}}}}, {"name": "PartitionedCall/model/tf.nn.relu_22/Relu", "op": "_FusedConv2D", "input": ["PartitionedCall/model/tf.nn.relu_21/Relu", "unknown_45", "unknown_46"], "device": "/device:CPU:0", "attr": {"num_host_args": {"i": "0"}, "data_format": {"s": "TkhXQw=="}, "filter_format": {"s": "SFdJTw=="}, "_input_shapes": {"list": {"shape": [{"dim": [{"size": "-2"}, {"size": "-5"}, {"size": "-6"}, {"size": "128"}]}, {"dim": [{"size": "3"}, {"size": "3"}, {"size": "128"}, {"size": "128"}]}]}}, "strides": {"list": {"i": ["1", "1", "1", "1"]}}, "num_args": {"i": "1"}, "fused_ops": {"list": {"s": ["Qmlhc0FkZA==", "UmVsdQ=="]}}, "TArgs": {"list": {"type": ["DT_FLOAT"]}}, "padding": {"s": "U0FNRQ=="}, "use_cudnn_on_gpu": {"b": true}, "leakyrelu_alpha": {"f": 0.2}, "epsilon": {"f": 0.0}, "T": {"type": "DT_FLOAT"}, "explicit_paddings": {"list": {}}, "dilations": {"list": {"i": ["1", "1", "1", "1"]}}}}, {"name": "PartitionedCall/model/tf.nn.convolution_25/convolution", "op": "Conv2D", "input": ["PartitionedCall/model/tf.nn.relu_22/Relu", "unknown_47"], "device": "/device:CPU:0", "attr": {"padding": {"s": "U0FNRQ=="}, "data_format": {"s": "TkhXQw=="}, "_input_shapes": {"list": {"shape": [{"dim": [{"size": "-2"}, {"size": "-5"}, {"size": "-6"}, {"size": "128"}]}, {"dim": [{"size": "1"}, {"size": "1"}, {"size": "128"}, {"size": "512"}]}]}}, "use_cudnn_on_gpu": {"b": true}, "strides": {"list": {"i": ["1", "1", "1", "1"]}}, "T": {"type": "DT_FLOAT"}, "explicit_paddings": {"list": {}}, "dilations": {"list": {"i": ["1", "1", "1", "1"]}}}}, {"name": "PartitionedCall/model/tf.math.add_32/ArithmeticOptimizer/AddOpsRewrite_Leaf_1_Add", "op": "AddN", "input": ["PartitionedCall/model/tf.nn.convolution_25/convolution", "PartitionedCall/model/tf.nn.relu_20/Relu"], "attr": {"N": {"i": "2"}, "T": {"type": "DT_FLOAT"}, "_grappler_ArithmeticOptimizer_AddOpsRewriteStage": {"b": true}}}, {"name": "PartitionedCall/model/tf.math.add_32/ArithmeticOptimizer/AddOpsRewrite_Add", "op": "AddV2", "input": ["unknown_48", "PartitionedCall/model/tf.math.add_32/ArithmeticOptimizer/AddOpsRewrite_Leaf_1_Add"], "attr": {"T": {"type": "DT_FLOAT"}, "_grappler_ArithmeticOptimizer_AddOpsRewriteStage": {"b": true}}}, {"name": "PartitionedCall/model/tf.nn.relu_23/Relu", "op": "Relu", "input": ["PartitionedCall/model/tf.math.add_32/ArithmeticOptimizer/AddOpsRewrite_Add"], "attr": {"T": {"type": "DT_FLOAT"}}}, {"name": "PartitionedCall/model/tf.nn.relu_24/Relu", "op": "_FusedConv2D", "input": ["PartitionedCall/model/tf.nn.relu_23/Relu", "unknown_49", "unknown_50"], "device": "/device:CPU:0", "attr": {"num_host_args": {"i": "0"}, "data_format": {"s": "TkhXQw=="}, "filter_format": {"s": "SFdJTw=="}, "_input_shapes": {"list": {"shape": [{"dim": [{"size": "-2"}, {"size": "-5"}, {"size": "-6"}, {"size": "512"}]}, {"dim": [{"size": "1"}, {"size": "1"}, {"size": "512"}, {"size": "256"}]}]}}, "fused_ops": {"list": {"s": ["Qmlhc0FkZA==", "UmVsdQ=="]}}, "num_args": {"i": "1"}, "strides": {"list": {"i": ["1", "1", "1", "1"]}}, "TArgs": {"list": {"type": ["DT_FLOAT"]}}, "padding": {"s": "U0FNRQ=="}, "use_cudnn_on_gpu": {"b": true}, "leakyrelu_alpha": {"f": 0.2}, "epsilon": {"f": 0.0}, "T": {"type": "DT_FLOAT"}, "explicit_paddings": {"list": {}}, "dilations": {"list": {"i": ["1", "1", "1", "1"]}}}}, {"name": "PartitionedCall/model/tf.math.add_34/Add", "op": "_FusedConv2D", "input": ["PartitionedCall/model/tf.nn.relu_23/Relu", "unknown_54", "unknown_57"], "device": "/device:CPU:0", "attr": {"num_host_args": {"i": "0"}, "_input_shapes": {"list": {"shape": [{"dim": [{"size": "-2"}, {"size": "-5"}, {"size": "-6"}, {"size": "512"}]}, {"dim": [{"size": "1"}, {"size": "1"}, {"size": "512"}, {"size": "1024"}]}]}}, "filter_format": {"s": "SFdJTw=="}, "data_format": {"s": "TkhXQw=="}, "strides": {"list": {"i": ["1", "2", "2", "1"]}}, "num_args": {"i": "1"}, "fused_ops": {"list": {"s": ["Qmlhc0FkZA=="]}}, "TArgs": {"list": {"type": ["DT_FLOAT"]}}, "padding": {"s": "VkFMSUQ="}, "use_cudnn_on_gpu": {"b": true}, "leakyrelu_alpha": {"f": 0.2}, "epsilon": {"f": 0.0}, "T": {"type": "DT_FLOAT"}, "explicit_paddings": {"list": {}}, "dilations": {"list": {"i": ["1", "1", "1", "1"]}}}}, {"name": "PartitionedCall/model/tf.compat.v1.pad_5/Pad", "op": "Pad", "input": ["PartitionedCall/model/tf.nn.relu_24/Relu", "unknown_51"], "attr": {"Tpaddings": {"type": "DT_INT32"}, "T": {"type": "DT_FLOAT"}}}, {"name": "PartitionedCall/model/tf.nn.relu_25/Relu", "op": "_FusedConv2D", "input": ["PartitionedCall/model/tf.compat.v1.pad_5/Pad", "unknown_52", "unknown_53"], "device": "/device:CPU:0", "attr": {"num_host_args": {"i": "0"}, "_input_shapes": {"list": {"shape": [{"dim": [{"size": "-2"}, {"size": "-29"}, {"size": "-30"}, {"size": "256"}]}, {"dim": [{"size": "3"}, {"size": "3"}, {"size": "256"}, {"size": "256"}]}]}}, "filter_format": {"s": "SFdJTw=="}, "data_format": {"s": "TkhXQw=="}, "strides": {"list": {"i": ["1", "2", "2", "1"]}}, "num_args": {"i": "1"}, "fused_ops": {"list": {"s": ["Qmlhc0FkZA==", "UmVsdQ=="]}}, "TArgs": {"list": {"type": ["DT_FLOAT"]}}, "padding": {"s": "VkFMSUQ="}, "use_cudnn_on_gpu": {"b": true}, "leakyrelu_alpha": {"f": 0.2}, "epsilon": {"f": 0.0}, "T": {"type": "DT_FLOAT"}, "explicit_paddings": {"list": {}}, "dilations": {"list": {"i": ["1", "1", "1", "1"]}}}}, {"name": "PartitionedCall/model/tf.math.add_36/Add", "op": "_FusedConv2D", "input": ["PartitionedCall/model/tf.nn.relu_25/Relu", "unknown_55", "unknown_56"], "device": "/device:CPU:0", "attr": {"num_host_args": {"i": "0"}, "data_format": {"s": "TkhXQw=="}, "filter_format": {"s": "SFdJTw=="}, "_input_shapes": {"list": {"shape": [{"dim": [{"size": "-2"}, {"size": "-31"}, {"size": "-32"}, {"size": "256"}]}, {"dim": [{"size": "1"}, {"size": "1"}, {"size": "256"}, {"size": "1024"}]}]}}, "strides": {"list": {"i": ["1", "1", "1", "1"]}}, "num_args": {"i": "1"}, "fused_ops": {"list": {"s": ["Qmlhc0FkZA=="]}}, "TArgs": {"list": {"type": ["DT_FLOAT"]}}, "padding": {"s": "U0FNRQ=="}, "use_cudnn_on_gpu": {"b": true}, "leakyrelu_alpha": {"f": 0.2}, "epsilon": {"f": 0.0}, "T": {"type": "DT_FLOAT"}, "explicit_paddings": {"list": {}}, "dilations": {"list": {"i": ["1", "1", "1", "1"]}}}}, {"name": "PartitionedCall/model/tf.math.add_37/Add", "op": "AddV2", "input": ["PartitionedCall/model/tf.math.add_36/Add", "PartitionedCall/model/tf.math.add_34/Add"], "attr": {"T": {"type": "DT_FLOAT"}}}, {"name": "PartitionedCall/model/tf.nn.relu_26/Relu", "op": "Relu", "input": ["PartitionedCall/model/tf.math.add_37/Add"], "attr": {"T": {"type": "DT_FLOAT"}}}, {"name": "PartitionedCall/model/tf.nn.relu_27/Relu", "op": "_FusedConv2D", "input": ["PartitionedCall/model/tf.nn.relu_26/Relu", "unknown_58", "unknown_59"], "device": "/device:CPU:0", "attr": {"num_host_args": {"i": "0"}, "_input_shapes": {"list": {"shape": [{"dim": [{"size": "-2"}, {"size": "-7"}, {"size": "-8"}, {"size": "1024"}]}, {"dim": [{"size": "1"}, {"size": "1"}, {"size": "1024"}, {"size": "256"}]}]}}, "filter_format": {"s": "SFdJTw=="}, "data_format": {"s": "TkhXQw=="}, "strides": {"list": {"i": ["1", "1", "1", "1"]}}, "num_args": {"i": "1"}, "fused_ops": {"list": {"s": ["Qmlhc0FkZA==", "UmVsdQ=="]}}, "TArgs": {"list": {"type": ["DT_FLOAT"]}}, "padding": {"s": "U0FNRQ=="}, "use_cudnn_on_gpu": {"b": true}, "leakyrelu_alpha": {"f": 0.2}, "epsilon": {"f": 0.0}, "T": {"type": "DT_FLOAT"}, "explicit_paddings": {"list": {}}, "dilations": {"list": {"i": ["1", "1", "1", "1"]}}}}, {"name": "PartitionedCall/model/tf.nn.relu_28/Relu", "op": "_FusedConv2D", "input": ["PartitionedCall/model/tf.nn.relu_27/Relu", "unknown_60", "unknown_61"], "device": "/device:CPU:0", "attr": {"num_host_args": {"i": "0"}, "data_format": {"s": "TkhXQw=="}, "filter_format": {"s": "SFdJTw=="}, "_input_shapes": {"list": {"shape": [{"dim": [{"size": "-2"}, {"size": "-7"}, {"size": "-8"}, {"size": "256"}]}, {"dim": [{"size": "3"}, {"size": "3"}, {"size": "256"}, {"size": "256"}]}]}}, "strides": {"list": {"i": ["1", "1", "1", "1"]}}, "num_args": {"i": "1"}, "fused_ops": {"list": {"s": ["Qmlhc0FkZA==", "UmVsdQ=="]}}, "TArgs": {"list": {"type": ["DT_FLOAT"]}}, "padding": {"s": "U0FNRQ=="}, "use_cudnn_on_gpu": {"b": true}, "leakyrelu_alpha": {"f": 0.2}, "epsilon": {"f": 0.0}, "T": {"type": "DT_FLOAT"}, "explicit_paddings": {"list": {}}, "dilations": {"list": {"i": ["1", "1", "1", "1"]}}}}, {"name": "PartitionedCall/model/tf.nn.convolution_32/convolution", "op": "Conv2D", "input": ["PartitionedCall/model/tf.nn.relu_28/Relu", "unknown_62"], "device": "/device:CPU:0", "attr": {"padding": {"s": "U0FNRQ=="}, "data_format": {"s": "TkhXQw=="}, "_input_shapes": {"list": {"shape": [{"dim": [{"size": "-2"}, {"size": "-7"}, {"size": "-8"}, {"size": "256"}]}, {"dim": [{"size": "1"}, {"size": "1"}, {"size": "256"}, {"size": "1024"}]}]}}, "use_cudnn_on_gpu": {"b": true}, "strides": {"list": {"i": ["1", "1", "1", "1"]}}, "T": {"type": "DT_FLOAT"}, "explicit_paddings": {"list": {}}, "dilations": {"list": {"i": ["1", "1", "1", "1"]}}}}, {"name": "PartitionedCall/model/tf.math.add_41/ArithmeticOptimizer/AddOpsRewrite_Leaf_1_Add", "op": "AddN", "input": ["PartitionedCall/model/tf.nn.convolution_32/convolution", "PartitionedCall/model/tf.nn.relu_26/Relu"], "attr": {"N": {"i": "2"}, "T": {"type": "DT_FLOAT"}, "_grappler_ArithmeticOptimizer_AddOpsRewriteStage": {"b": true}}}, {"name": "PartitionedCall/model/tf.math.add_41/ArithmeticOptimizer/AddOpsRewrite_Add", "op": "AddV2", "input": ["unknown_63", "PartitionedCall/model/tf.math.add_41/ArithmeticOptimizer/AddOpsRewrite_Leaf_1_Add"], "attr": {"T": {"type": "DT_FLOAT"}, "_grappler_ArithmeticOptimizer_AddOpsRewriteStage": {"b": true}}}, {"name": "PartitionedCall/model/tf.nn.relu_29/Relu", "op": "Relu", "input": ["PartitionedCall/model/tf.math.add_41/ArithmeticOptimizer/AddOpsRewrite_Add"], "attr": {"T": {"type": "DT_FLOAT"}}}, {"name": "PartitionedCall/model/tf.nn.relu_30/Relu", "op": "_FusedConv2D", "input": ["PartitionedCall/model/tf.nn.relu_29/Relu", "unknown_64", "unknown_65"], "device": "/device:CPU:0", "attr": {"num_host_args": {"i": "0"}, "_input_shapes": {"list": {"shape": [{"dim": [{"size": "-2"}, {"size": "-7"}, {"size": "-8"}, {"size": "1024"}]}, {"dim": [{"size": "1"}, {"size": "1"}, {"size": "1024"}, {"size": "256"}]}]}}, "filter_format": {"s": "SFdJTw=="}, "data_format": {"s": "TkhXQw=="}, "strides": {"list": {"i": ["1", "1", "1", "1"]}}, "num_args": {"i": "1"}, "fused_ops": {"list": {"s": ["Qmlhc0FkZA==", "UmVsdQ=="]}}, "TArgs": {"list": {"type": ["DT_FLOAT"]}}, "padding": {"s": "U0FNRQ=="}, "use_cudnn_on_gpu": {"b": true}, "leakyrelu_alpha": {"f": 0.2}, "epsilon": {"f": 0.0}, "T": {"type": "DT_FLOAT"}, "explicit_paddings": {"list": {}}, "dilations": {"list": {"i": ["1", "1", "1", "1"]}}}}, {"name": "PartitionedCall/model/tf.nn.relu_31/Relu", "op": "_FusedConv2D", "input": ["PartitionedCall/model/tf.nn.relu_30/Relu", "unknown_66", "unknown_67"], "device": "/device:CPU:0", "attr": {"num_host_args": {"i": "0"}, "data_format": {"s": "TkhXQw=="}, "filter_format": {"s": "SFdJTw=="}, "_input_shapes": {"list": {"shape": [{"dim": [{"size": "-2"}, {"size": "-7"}, {"size": "-8"}, {"size": "256"}]}, {"dim": [{"size": "3"}, {"size": "3"}, {"size": "256"}, {"size": "256"}]}]}}, "strides": {"list": {"i": ["1", "1", "1", "1"]}}, "num_args": {"i": "1"}, "fused_ops": {"list": {"s": ["Qmlhc0FkZA==", "UmVsdQ=="]}}, "TArgs": {"list": {"type": ["DT_FLOAT"]}}, "padding": {"s": "U0FNRQ=="}, "use_cudnn_on_gpu": {"b": true}, "leakyrelu_alpha": {"f": 0.2}, "epsilon": {"f": 0.0}, "T": {"type": "DT_FLOAT"}, "explicit_paddings": {"list": {}}, "dilations": {"list": {"i": ["1", "1", "1", "1"]}}}}, {"name": "PartitionedCall/model/tf.nn.convolution_35/convolution", "op": "Conv2D", "input": ["PartitionedCall/model/tf.nn.relu_31/Relu", "unknown_68"], "device": "/device:CPU:0", "attr": {"padding": {"s": "U0FNRQ=="}, "data_format": {"s": "TkhXQw=="}, "_input_shapes": {"list": {"shape": [{"dim": [{"size": "-2"}, {"size": "-7"}, {"size": "-8"}, {"size": "256"}]}, {"dim": [{"size": "1"}, {"size": "1"}, {"size": "256"}, {"size": "1024"}]}]}}, "use_cudnn_on_gpu": {"b": true}, "strides": {"list": {"i": ["1", "1", "1", "1"]}}, "T": {"type": "DT_FLOAT"}, "explicit_paddings": {"list": {}}, "dilations": {"list": {"i": ["1", "1", "1", "1"]}}}}, {"name": "PartitionedCall/model/tf.math.add_45/ArithmeticOptimizer/AddOpsRewrite_Leaf_1_Add", "op": "AddN", "input": ["PartitionedCall/model/tf.nn.convolution_35/convolution", "PartitionedCall/model/tf.nn.relu_29/Relu"], "attr": {"N": {"i": "2"}, "T": {"type": "DT_FLOAT"}, "_grappler_ArithmeticOptimizer_AddOpsRewriteStage": {"b": true}}}, {"name": "PartitionedCall/model/tf.math.add_45/ArithmeticOptimizer/AddOpsRewrite_Add", "op": "AddV2", "input": ["unknown_69", "PartitionedCall/model/tf.math.add_45/ArithmeticOptimizer/AddOpsRewrite_Leaf_1_Add"], "attr": {"T": {"type": "DT_FLOAT"}, "_grappler_ArithmeticOptimizer_AddOpsRewriteStage": {"b": true}}}, {"name": "PartitionedCall/model/tf.nn.relu_32/Relu", "op": "Relu", "input": ["PartitionedCall/model/tf.math.add_45/ArithmeticOptimizer/AddOpsRewrite_Add"], "attr": {"T": {"type": "DT_FLOAT"}}}, {"name": "PartitionedCall/model/tf.nn.relu_33/Relu", "op": "_FusedConv2D", "input": ["PartitionedCall/model/tf.nn.relu_32/Relu", "unknown_70", "unknown_71"], "device": "/device:CPU:0", "attr": {"num_host_args": {"i": "0"}, "_input_shapes": {"list": {"shape": [{"dim": [{"size": "-2"}, {"size": "-7"}, {"size": "-8"}, {"size": "1024"}]}, {"dim": [{"size": "1"}, {"size": "1"}, {"size": "1024"}, {"size": "256"}]}]}}, "filter_format": {"s": "SFdJTw=="}, "data_format": {"s": "TkhXQw=="}, "fused_ops": {"list": {"s": ["Qmlhc0FkZA==", "UmVsdQ=="]}}, "num_args": {"i": "1"}, "strides": {"list": {"i": ["1", "1", "1", "1"]}}, "TArgs": {"list": {"type": ["DT_FLOAT"]}}, "padding": {"s": "U0FNRQ=="}, "use_cudnn_on_gpu": {"b": true}, "leakyrelu_alpha": {"f": 0.2}, "epsilon": {"f": 0.0}, "T": {"type": "DT_FLOAT"}, "explicit_paddings": {"list": {}}, "dilations": {"list": {"i": ["1", "1", "1", "1"]}}}}, {"name": "PartitionedCall/model/tf.nn.relu_34/Relu", "op": "_FusedConv2D", "input": ["PartitionedCall/model/tf.nn.relu_33/Relu", "unknown_72", "unknown_73"], "device": "/device:CPU:0", "attr": {"num_host_args": {"i": "0"}, "data_format": {"s": "TkhXQw=="}, "filter_format": {"s": "SFdJTw=="}, "_input_shapes": {"list": {"shape": [{"dim": [{"size": "-2"}, {"size": "-7"}, {"size": "-8"}, {"size": "256"}]}, {"dim": [{"size": "3"}, {"size": "3"}, {"size": "256"}, {"size": "256"}]}]}}, "strides": {"list": {"i": ["1", "1", "1", "1"]}}, "num_args": {"i": "1"}, "fused_ops": {"list": {"s": ["Qmlhc0FkZA==", "UmVsdQ=="]}}, "TArgs": {"list": {"type": ["DT_FLOAT"]}}, "padding": {"s": "U0FNRQ=="}, "use_cudnn_on_gpu": {"b": true}, "leakyrelu_alpha": {"f": 0.2}, "epsilon": {"f": 0.0}, "T": {"type": "DT_FLOAT"}, "explicit_paddings": {"list": {}}, "dilations": {"list": {"i": ["1", "1", "1", "1"]}}}}, {"name": "PartitionedCall/model/tf.nn.convolution_38/convolution", "op": "Conv2D", "input": ["PartitionedCall/model/tf.nn.relu_34/Relu", "unknown_74"], "device": "/device:CPU:0", "attr": {"padding": {"s": "U0FNRQ=="}, "_input_shapes": {"list": {"shape": [{"dim": [{"size": "-2"}, {"size": "-7"}, {"size": "-8"}, {"size": "256"}]}, {"dim": [{"size": "1"}, {"size": "1"}, {"size": "256"}, {"size": "1024"}]}]}}, "data_format": {"s": "TkhXQw=="}, "strides": {"list": {"i": ["1", "1", "1", "1"]}}, "use_cudnn_on_gpu": {"b": true}, "T": {"type": "DT_FLOAT"}, "explicit_paddings": {"list": {}}, "dilations": {"list": {"i": ["1", "1", "1", "1"]}}}}, {"name": "PartitionedCall/model/tf.math.add_49/ArithmeticOptimizer/AddOpsRewrite_Leaf_1_Add", "op": "AddN", "input": ["PartitionedCall/model/tf.nn.convolution_38/convolution", "PartitionedCall/model/tf.nn.relu_32/Relu"], "attr": {"N": {"i": "2"}, "T": {"type": "DT_FLOAT"}, "_grappler_ArithmeticOptimizer_AddOpsRewriteStage": {"b": true}}}, {"name": "PartitionedCall/model/tf.math.add_49/ArithmeticOptimizer/AddOpsRewrite_Add", "op": "AddV2", "input": ["unknown_75", "PartitionedCall/model/tf.math.add_49/ArithmeticOptimizer/AddOpsRewrite_Leaf_1_Add"], "attr": {"T": {"type": "DT_FLOAT"}, "_grappler_ArithmeticOptimizer_AddOpsRewriteStage": {"b": true}}}, {"name": "PartitionedCall/model/tf.nn.relu_35/Relu", "op": "Relu", "input": ["PartitionedCall/model/tf.math.add_49/ArithmeticOptimizer/AddOpsRewrite_Add"], "attr": {"T": {"type": "DT_FLOAT"}}}, {"name": "PartitionedCall/model/tf.nn.relu_36/Relu", "op": "_FusedConv2D", "input": ["PartitionedCall/model/tf.nn.relu_35/Relu", "unknown_76", "unknown_77"], "device": "/device:CPU:0", "attr": {"num_host_args": {"i": "0"}, "data_format": {"s": "TkhXQw=="}, "filter_format": {"s": "SFdJTw=="}, "_input_shapes": {"list": {"shape": [{"dim": [{"size": "-2"}, {"size": "-7"}, {"size": "-8"}, {"size": "1024"}]}, {"dim": [{"size": "1"}, {"size": "1"}, {"size": "1024"}, {"size": "256"}]}]}}, "strides": {"list": {"i": ["1", "1", "1", "1"]}}, "num_args": {"i": "1"}, "fused_ops": {"list": {"s": ["Qmlhc0FkZA==", "UmVsdQ=="]}}, "TArgs": {"list": {"type": ["DT_FLOAT"]}}, "padding": {"s": "U0FNRQ=="}, "use_cudnn_on_gpu": {"b": true}, "leakyrelu_alpha": {"f": 0.2}, "epsilon": {"f": 0.0}, "T": {"type": "DT_FLOAT"}, "explicit_paddings": {"list": {}}, "dilations": {"list": {"i": ["1", "1", "1", "1"]}}}}, {"name": "PartitionedCall/model/tf.nn.relu_37/Relu", "op": "_FusedConv2D", "input": ["PartitionedCall/model/tf.nn.relu_36/Relu", "unknown_78", "unknown_79"], "device": "/device:CPU:0", "attr": {"num_host_args": {"i": "0"}, "_input_shapes": {"list": {"shape": [{"dim": [{"size": "-2"}, {"size": "-7"}, {"size": "-8"}, {"size": "256"}]}, {"dim": [{"size": "3"}, {"size": "3"}, {"size": "256"}, {"size": "256"}]}]}}, "filter_format": {"s": "SFdJTw=="}, "data_format": {"s": "TkhXQw=="}, "strides": {"list": {"i": ["1", "1", "1", "1"]}}, "num_args": {"i": "1"}, "fused_ops": {"list": {"s": ["Qmlhc0FkZA==", "UmVsdQ=="]}}, "TArgs": {"list": {"type": ["DT_FLOAT"]}}, "padding": {"s": "U0FNRQ=="}, "use_cudnn_on_gpu": {"b": true}, "leakyrelu_alpha": {"f": 0.2}, "epsilon": {"f": 0.0}, "T": {"type": "DT_FLOAT"}, "explicit_paddings": {"list": {}}, "dilations": {"list": {"i": ["1", "1", "1", "1"]}}}}, {"name": "PartitionedCall/model/tf.nn.convolution_41/convolution", "op": "Conv2D", "input": ["PartitionedCall/model/tf.nn.relu_37/Relu", "unknown_80"], "device": "/device:CPU:0", "attr": {"padding": {"s": "U0FNRQ=="}, "data_format": {"s": "TkhXQw=="}, "_input_shapes": {"list": {"shape": [{"dim": [{"size": "-2"}, {"size": "-7"}, {"size": "-8"}, {"size": "256"}]}, {"dim": [{"size": "1"}, {"size": "1"}, {"size": "256"}, {"size": "1024"}]}]}}, "strides": {"list": {"i": ["1", "1", "1", "1"]}}, "use_cudnn_on_gpu": {"b": true}, "T": {"type": "DT_FLOAT"}, "explicit_paddings": {"list": {}}, "dilations": {"list": {"i": ["1", "1", "1", "1"]}}}}, {"name": "PartitionedCall/model/tf.math.add_53/ArithmeticOptimizer/AddOpsRewrite_Leaf_1_Add", "op": "AddN", "input": ["PartitionedCall/model/tf.nn.convolution_41/convolution", "PartitionedCall/model/tf.nn.relu_35/Relu"], "attr": {"N": {"i": "2"}, "T": {"type": "DT_FLOAT"}, "_grappler_ArithmeticOptimizer_AddOpsRewriteStage": {"b": true}}}, {"name": "PartitionedCall/model/tf.math.add_53/ArithmeticOptimizer/AddOpsRewrite_Add", "op": "AddV2", "input": ["unknown_81", "PartitionedCall/model/tf.math.add_53/ArithmeticOptimizer/AddOpsRewrite_Leaf_1_Add"], "attr": {"T": {"type": "DT_FLOAT"}, "_grappler_ArithmeticOptimizer_AddOpsRewriteStage": {"b": true}}}, {"name": "PartitionedCall/model/tf.nn.relu_38/Relu", "op": "Relu", "input": ["PartitionedCall/model/tf.math.add_53/ArithmeticOptimizer/AddOpsRewrite_Add"], "attr": {"T": {"type": "DT_FLOAT"}}}, {"name": "PartitionedCall/model/tf.nn.relu_39/Relu", "op": "_FusedConv2D", "input": ["PartitionedCall/model/tf.nn.relu_38/Relu", "unknown_82", "unknown_83"], "device": "/device:CPU:0", "attr": {"num_host_args": {"i": "0"}, "_input_shapes": {"list": {"shape": [{"dim": [{"size": "-2"}, {"size": "-7"}, {"size": "-8"}, {"size": "1024"}]}, {"dim": [{"size": "1"}, {"size": "1"}, {"size": "1024"}, {"size": "256"}]}]}}, "filter_format": {"s": "SFdJTw=="}, "data_format": {"s": "TkhXQw=="}, "fused_ops": {"list": {"s": ["Qmlhc0FkZA==", "UmVsdQ=="]}}, "num_args": {"i": "1"}, "strides": {"list": {"i": ["1", "1", "1", "1"]}}, "TArgs": {"list": {"type": ["DT_FLOAT"]}}, "padding": {"s": "U0FNRQ=="}, "use_cudnn_on_gpu": {"b": true}, "leakyrelu_alpha": {"f": 0.2}, "epsilon": {"f": 0.0}, "T": {"type": "DT_FLOAT"}, "explicit_paddings": {"list": {}}, "dilations": {"list": {"i": ["1", "1", "1", "1"]}}}}, {"name": "PartitionedCall/model/tf.nn.relu_40/Relu", "op": "_FusedConv2D", "input": ["PartitionedCall/model/tf.nn.relu_39/Relu", "unknown_84", "unknown_85"], "device": "/device:CPU:0", "attr": {"num_host_args": {"i": "0"}, "_input_shapes": {"list": {"shape": [{"dim": [{"size": "-2"}, {"size": "-7"}, {"size": "-8"}, {"size": "256"}]}, {"dim": [{"size": "3"}, {"size": "3"}, {"size": "256"}, {"size": "256"}]}]}}, "filter_format": {"s": "SFdJTw=="}, "data_format": {"s": "TkhXQw=="}, "fused_ops": {"list": {"s": ["Qmlhc0FkZA==", "UmVsdQ=="]}}, "num_args": {"i": "1"}, "strides": {"list": {"i": ["1", "1", "1", "1"]}}, "TArgs": {"list": {"type": ["DT_FLOAT"]}}, "padding": {"s": "U0FNRQ=="}, "use_cudnn_on_gpu": {"b": true}, "leakyrelu_alpha": {"f": 0.2}, "epsilon": {"f": 0.0}, "T": {"type": "DT_FLOAT"}, "explicit_paddings": {"list": {}}, "dilations": {"list": {"i": ["1", "1", "1", "1"]}}}}, {"name": "PartitionedCall/model/tf.nn.convolution_44/convolution", "op": "Conv2D", "input": ["PartitionedCall/model/tf.nn.relu_40/Relu", "unknown_86"], "device": "/device:CPU:0", "attr": {"padding": {"s": "U0FNRQ=="}, "_input_shapes": {"list": {"shape": [{"dim": [{"size": "-2"}, {"size": "-7"}, {"size": "-8"}, {"size": "256"}]}, {"dim": [{"size": "1"}, {"size": "1"}, {"size": "256"}, {"size": "1024"}]}]}}, "data_format": {"s": "TkhXQw=="}, "use_cudnn_on_gpu": {"b": true}, "strides": {"list": {"i": ["1", "1", "1", "1"]}}, "T": {"type": "DT_FLOAT"}, "explicit_paddings": {"list": {}}, "dilations": {"list": {"i": ["1", "1", "1", "1"]}}}}, {"name": "PartitionedCall/model/tf.math.add_57/ArithmeticOptimizer/AddOpsRewrite_Leaf_1_Add", "op": "AddN", "input": ["PartitionedCall/model/tf.nn.convolution_44/convolution", "PartitionedCall/model/tf.nn.relu_38/Relu"], "attr": {"N": {"i": "2"}, "T": {"type": "DT_FLOAT"}, "_grappler_ArithmeticOptimizer_AddOpsRewriteStage": {"b": true}}}, {"name": "PartitionedCall/model/tf.math.add_57/ArithmeticOptimizer/AddOpsRewrite_Add", "op": "AddV2", "input": ["unknown_87", "PartitionedCall/model/tf.math.add_57/ArithmeticOptimizer/AddOpsRewrite_Leaf_1_Add"], "attr": {"T": {"type": "DT_FLOAT"}, "_grappler_ArithmeticOptimizer_AddOpsRewriteStage": {"b": true}}}, {"name": "PartitionedCall/model/tf.nn.relu_41/Relu", "op": "Relu", "input": ["PartitionedCall/model/tf.math.add_57/ArithmeticOptimizer/AddOpsRewrite_Add"], "attr": {"T": {"type": "DT_FLOAT"}}}, {"name": "PartitionedCall/model/tf.nn.relu_42/Relu", "op": "_FusedConv2D", "input": ["PartitionedCall/model/tf.nn.relu_41/Relu", "unknown_88", "unknown_89"], "device": "/device:CPU:0", "attr": {"num_host_args": {"i": "0"}, "_input_shapes": {"list": {"shape": [{"dim": [{"size": "-2"}, {"size": "-7"}, {"size": "-8"}, {"size": "1024"}]}, {"dim": [{"size": "1"}, {"size": "1"}, {"size": "1024"}, {"size": "512"}]}]}}, "filter_format": {"s": "SFdJTw=="}, "data_format": {"s": "TkhXQw=="}, "strides": {"list": {"i": ["1", "1", "1", "1"]}}, "num_args": {"i": "1"}, "fused_ops": {"list": {"s": ["Qmlhc0FkZA==", "UmVsdQ=="]}}, "TArgs": {"list": {"type": ["DT_FLOAT"]}}, "padding": {"s": "U0FNRQ=="}, "use_cudnn_on_gpu": {"b": true}, "leakyrelu_alpha": {"f": 0.2}, "epsilon": {"f": 0.0}, "T": {"type": "DT_FLOAT"}, "explicit_paddings": {"list": {}}, "dilations": {"list": {"i": ["1", "1", "1", "1"]}}}}, {"name": "PartitionedCall/model/tf.math.add_59/Add", "op": "_FusedConv2D", "input": ["PartitionedCall/model/tf.nn.relu_41/Relu", "unknown_93", "unknown_96"], "device": "/device:CPU:0", "attr": {"num_host_args": {"i": "0"}, "_input_shapes": {"list": {"shape": [{"dim": [{"size": "-2"}, {"size": "-7"}, {"size": "-8"}, {"size": "1024"}]}, {"dim": [{"size": "1"}, {"size": "1"}, {"size": "1024"}, {"size": "2048"}]}]}}, "filter_format": {"s": "SFdJTw=="}, "data_format": {"s": "TkhXQw=="}, "fused_ops": {"list": {"s": ["Qmlhc0FkZA=="]}}, "num_args": {"i": "1"}, "strides": {"list": {"i": ["1", "2", "2", "1"]}}, "TArgs": {"list": {"type": ["DT_FLOAT"]}}, "padding": {"s": "VkFMSUQ="}, "use_cudnn_on_gpu": {"b": true}, "leakyrelu_alpha": {"f": 0.2}, "epsilon": {"f": 0.0}, "T": {"type": "DT_FLOAT"}, "explicit_paddings": {"list": {}}, "dilations": {"list": {"i": ["1", "1", "1", "1"]}}}}, {"name": "PartitionedCall/model/tf.compat.v1.pad_6/Pad", "op": "Pad", "input": ["PartitionedCall/model/tf.nn.relu_42/Relu", "unknown_90"], "attr": {"Tpaddings": {"type": "DT_INT32"}, "T": {"type": "DT_FLOAT"}}}, {"name": "PartitionedCall/model/tf.nn.relu_43/Relu", "op": "_FusedConv2D", "input": ["PartitionedCall/model/tf.compat.v1.pad_6/Pad", "unknown_91", "unknown_92"], "device": "/device:CPU:0", "attr": {"num_host_args": {"i": "0"}, "_input_shapes": {"list": {"shape": [{"dim": [{"size": "-2"}, {"size": "-35"}, {"size": "-36"}, {"size": "512"}]}, {"dim": [{"size": "3"}, {"size": "3"}, {"size": "512"}, {"size": "512"}]}]}}, "filter_format": {"s": "SFdJTw=="}, "data_format": {"s": "TkhXQw=="}, "strides": {"list": {"i": ["1", "2", "2", "1"]}}, "num_args": {"i": "1"}, "fused_ops": {"list": {"s": ["Qmlhc0FkZA==", "UmVsdQ=="]}}, "TArgs": {"list": {"type": ["DT_FLOAT"]}}, "padding": {"s": "VkFMSUQ="}, "use_cudnn_on_gpu": {"b": true}, "leakyrelu_alpha": {"f": 0.2}, "epsilon": {"f": 0.0}, "T": {"type": "DT_FLOAT"}, "explicit_paddings": {"list": {}}, "dilations": {"list": {"i": ["1", "1", "1", "1"]}}}}, {"name": "PartitionedCall/model/tf.math.add_61/Add", "op": "_FusedConv2D", "input": ["PartitionedCall/model/tf.nn.relu_43/Relu", "unknown_94", "unknown_95"], "device": "/device:CPU:0", "attr": {"num_host_args": {"i": "0"}, "data_format": {"s": "TkhXQw=="}, "filter_format": {"s": "SFdJTw=="}, "_input_shapes": {"list": {"shape": [{"dim": [{"size": "-2"}, {"size": "-37"}, {"size": "-38"}, {"size": "512"}]}, {"dim": [{"size": "1"}, {"size": "1"}, {"size": "512"}, {"size": "2048"}]}]}}, "strides": {"list": {"i": ["1", "1", "1", "1"]}}, "num_args": {"i": "1"}, "fused_ops": {"list": {"s": ["Qmlhc0FkZA=="]}}, "TArgs": {"list": {"type": ["DT_FLOAT"]}}, "padding": {"s": "U0FNRQ=="}, "use_cudnn_on_gpu": {"b": true}, "leakyrelu_alpha": {"f": 0.2}, "epsilon": {"f": 0.0}, "T": {"type": "DT_FLOAT"}, "explicit_paddings": {"list": {}}, "dilations": {"list": {"i": ["1", "1", "1", "1"]}}}}, {"name": "PartitionedCall/model/tf.math.add_62/Add", "op": "AddV2", "input": ["PartitionedCall/model/tf.math.add_61/Add", "PartitionedCall/model/tf.math.add_59/Add"], "attr": {"T": {"type": "DT_FLOAT"}}}, {"name": "PartitionedCall/model/tf.nn.relu_44/Relu", "op": "Relu", "input": ["PartitionedCall/model/tf.math.add_62/Add"], "attr": {"T": {"type": "DT_FLOAT"}}}, {"name": "PartitionedCall/model/tf.nn.relu_45/Relu", "op": "_FusedConv2D", "input": ["PartitionedCall/model/tf.nn.relu_44/Relu", "unknown_97", "unknown_98"], "device": "/device:CPU:0", "attr": {"num_host_args": {"i": "0"}, "_input_shapes": {"list": {"shape": [{"dim": [{"size": "-2"}, {"size": "-9"}, {"size": "-10"}, {"size": "2048"}]}, {"dim": [{"size": "1"}, {"size": "1"}, {"size": "2048"}, {"size": "512"}]}]}}, "filter_format": {"s": "SFdJTw=="}, "data_format": {"s": "TkhXQw=="}, "fused_ops": {"list": {"s": ["Qmlhc0FkZA==", "UmVsdQ=="]}}, "num_args": {"i": "1"}, "strides": {"list": {"i": ["1", "1", "1", "1"]}}, "TArgs": {"list": {"type": ["DT_FLOAT"]}}, "padding": {"s": "U0FNRQ=="}, "use_cudnn_on_gpu": {"b": true}, "leakyrelu_alpha": {"f": 0.2}, "epsilon": {"f": 0.0}, "T": {"type": "DT_FLOAT"}, "explicit_paddings": {"list": {}}, "dilations": {"list": {"i": ["1", "1", "1", "1"]}}}}, {"name": "PartitionedCall/model/tf.nn.relu_46/Relu", "op": "_FusedConv2D", "input": ["PartitionedCall/model/tf.nn.relu_45/Relu", "unknown_99", "unknown_100"], "device": "/device:CPU:0", "attr": {"num_host_args": {"i": "0"}, "data_format": {"s": "TkhXQw=="}, "filter_format": {"s": "SFdJTw=="}, "_input_shapes": {"list": {"shape": [{"dim": [{"size": "-2"}, {"size": "-9"}, {"size": "-10"}, {"size": "512"}]}, {"dim": [{"size": "3"}, {"size": "3"}, {"size": "512"}, {"size": "512"}]}]}}, "fused_ops": {"list": {"s": ["Qmlhc0FkZA==", "UmVsdQ=="]}}, "num_args": {"i": "1"}, "strides": {"list": {"i": ["1", "1", "1", "1"]}}, "TArgs": {"list": {"type": ["DT_FLOAT"]}}, "padding": {"s": "U0FNRQ=="}, "use_cudnn_on_gpu": {"b": true}, "leakyrelu_alpha": {"f": 0.2}, "epsilon": {"f": 0.0}, "T": {"type": "DT_FLOAT"}, "explicit_paddings": {"list": {}}, "dilations": {"list": {"i": ["1", "1", "1", "1"]}}}}, {"name": "PartitionedCall/model/tf.nn.convolution_51/convolution", "op": "Conv2D", "input": ["PartitionedCall/model/tf.nn.relu_46/Relu", "unknown_101"], "device": "/device:CPU:0", "attr": {"padding": {"s": "U0FNRQ=="}, "data_format": {"s": "TkhXQw=="}, "_input_shapes": {"list": {"shape": [{"dim": [{"size": "-2"}, {"size": "-9"}, {"size": "-10"}, {"size": "512"}]}, {"dim": [{"size": "1"}, {"size": "1"}, {"size": "512"}, {"size": "2048"}]}]}}, "strides": {"list": {"i": ["1", "1", "1", "1"]}}, "use_cudnn_on_gpu": {"b": true}, "T": {"type": "DT_FLOAT"}, "explicit_paddings": {"list": {}}, "dilations": {"list": {"i": ["1", "1", "1", "1"]}}}}, {"name": "PartitionedCall/model/tf.math.add_66/ArithmeticOptimizer/AddOpsRewrite_Leaf_1_Add", "op": "AddN", "input": ["PartitionedCall/model/tf.nn.convolution_51/convolution", "PartitionedCall/model/tf.nn.relu_44/Relu"], "attr": {"N": {"i": "2"}, "T": {"type": "DT_FLOAT"}, "_grappler_ArithmeticOptimizer_AddOpsRewriteStage": {"b": true}}}, {"name": "PartitionedCall/model/tf.math.add_66/ArithmeticOptimizer/AddOpsRewrite_Add", "op": "AddV2", "input": ["unknown_102", "PartitionedCall/model/tf.math.add_66/ArithmeticOptimizer/AddOpsRewrite_Leaf_1_Add"], "attr": {"T": {"type": "DT_FLOAT"}, "_grappler_ArithmeticOptimizer_AddOpsRewriteStage": {"b": true}}}, {"name": "PartitionedCall/model/tf.nn.relu_47/Relu", "op": "Relu", "input": ["PartitionedCall/model/tf.math.add_66/ArithmeticOptimizer/AddOpsRewrite_Add"], "attr": {"T": {"type": "DT_FLOAT"}}}, {"name": "PartitionedCall/model/tf.nn.relu_48/Relu", "op": "_FusedConv2D", "input": ["PartitionedCall/model/tf.nn.relu_47/Relu", "unknown_103", "unknown_105"], "device": "/device:CPU:0", "attr": {"num_host_args": {"i": "0"}, "data_format": {"s": "TkhXQw=="}, "filter_format": {"s": "SFdJTw=="}, "_input_shapes": {"list": {"shape": [{"dim": [{"size": "-2"}, {"size": "-9"}, {"size": "-10"}, {"size": "2048"}]}, {"dim": [{"size": "1"}, {"size": "1"}, {"size": "2048"}, {"size": "512"}]}]}}, "fused_ops": {"list": {"s": ["Qmlhc0FkZA==", "UmVsdQ=="]}}, "num_args": {"i": "1"}, "strides": {"list": {"i": ["1", "1", "1", "1"]}}, "TArgs": {"list": {"type": ["DT_FLOAT"]}}, "padding": {"s": "U0FNRQ=="}, "use_cudnn_on_gpu": {"b": true}, "leakyrelu_alpha": {"f": 0.2}, "epsilon": {"f": 0.0}, "T": {"type": "DT_FLOAT"}, "explicit_paddings": {"list": {}}, "dilations": {"list": {"i": ["1", "1", "1", "1"]}}}}, {"name": "PartitionedCall/model/tf.nn.relu_49/Relu", "op": "_FusedConv2D", "input": ["PartitionedCall/model/tf.nn.relu_48/Relu", "unknown_108", "unknown_109"], "device": "/device:CPU:0", "attr": {"num_host_args": {"i": "0"}, "_input_shapes": {"list": {"shape": [{"dim": [{"size": "-2"}, {"size": "-9"}, {"size": "-10"}, {"size": "512"}]}, {"dim": [{"size": "3"}, {"size": "3"}, {"size": "512"}, {"size": "512"}]}]}}, "filter_format": {"s": "SFdJTw=="}, "data_format": {"s": "TkhXQw=="}, "strides": {"list": {"i": ["1", "1", "1", "1"]}}, "num_args": {"i": "1"}, "fused_ops": {"list": {"s": ["Qmlhc0FkZA==", "UmVsdQ=="]}}, "TArgs": {"list": {"type": ["DT_FLOAT"]}}, "padding": {"s": "U0FNRQ=="}, "use_cudnn_on_gpu": {"b": true}, "leakyrelu_alpha": {"f": 0.2}, "epsilon": {"f": 0.0}, "T": {"type": "DT_FLOAT"}, "explicit_paddings": {"list": {}}, "dilations": {"list": {"i": ["1", "1", "1", "1"]}}}}, {"name": "PartitionedCall/model/tf.nn.convolution_54/convolution", "op": "Conv2D", "input": ["PartitionedCall/model/tf.nn.relu_49/Relu", "unknown_110"], "device": "/device:CPU:0", "attr": {"padding": {"s": "U0FNRQ=="}, "_input_shapes": {"list": {"shape": [{"dim": [{"size": "-2"}, {"size": "-9"}, {"size": "-10"}, {"size": "512"}]}, {"dim": [{"size": "1"}, {"size": "1"}, {"size": "512"}, {"size": "2048"}]}]}}, "data_format": {"s": "TkhXQw=="}, "strides": {"list": {"i": ["1", "1", "1", "1"]}}, "use_cudnn_on_gpu": {"b": true}, "T": {"type": "DT_FLOAT"}, "explicit_paddings": {"list": {}}, "dilations": {"list": {"i": ["1", "1", "1", "1"]}}}}, {"name": "PartitionedCall/model/tf.math.add_70/ArithmeticOptimizer/AddOpsRewrite_Leaf_1_Add", "op": "AddN", "input": ["PartitionedCall/model/tf.nn.convolution_54/convolution", "PartitionedCall/model/tf.nn.relu_47/Relu"], "attr": {"N": {"i": "2"}, "T": {"type": "DT_FLOAT"}, "_grappler_ArithmeticOptimizer_AddOpsRewriteStage": {"b": true}}}, {"name": "PartitionedCall/model/tf.math.add_70/ArithmeticOptimizer/AddOpsRewrite_Add", "op": "AddV2", "input": ["unknown_112", "PartitionedCall/model/tf.math.add_70/ArithmeticOptimizer/AddOpsRewrite_Leaf_1_Add"], "attr": {"T": {"type": "DT_FLOAT"}, "_grappler_ArithmeticOptimizer_AddOpsRewriteStage": {"b": true}}}, {"name": "PartitionedCall/model/tf.nn.relu_50/Relu", "op": "Relu", "input": ["PartitionedCall/model/tf.math.add_70/ArithmeticOptimizer/AddOpsRewrite_Add"], "attr": {"T": {"type": "DT_FLOAT"}}}, {"name": "PartitionedCall/model/tf.math.reduce_mean_1/Mean", "op": "Mean", "input": ["PartitionedCall/model/tf.nn.relu_50/Relu", "PartitionedCall/model/tf.math.reduce_mean_1/Mean/reduction_indices"], "attr": {"T": {"type": "DT_FLOAT"}, "Tidx": {"type": "DT_INT32"}, "keep_dims": {"b": true}}}, {"name": "PartitionedCall/model/tf.compat.v1.transpose_5/transpose", "op": "Transpose", "input": ["PartitionedCall/model/tf.math.reduce_mean_1/Mean", "PartitionedCall/model/tf.compat.v1.transpose_5/transpose/perm"], "attr": {"Tperm": {"type": "DT_INT32"}, "_input_shapes": {"list": {"shape": [{"dim": [{"size": "-2"}, {"size": "1"}, {"size": "1"}, {"size": "2048"}]}, {"dim": [{"size": "4"}]}]}}, "T": {"type": "DT_FLOAT"}}}, {"name": "PartitionedCall/model/tf.compat.v1.shape_2/wa/Shape", "op": "Shape", "input": ["PartitionedCall/model/tf.math.reduce_mean_1/Mean"], "attr": {"T": {"type": "DT_FLOAT"}, "out_type": {"type": "DT_INT64"}}, "experimentalType": {"typeId": "TFT_PRODUCT", "args": [{"typeId": "TFT_SHAPE_TENSOR", "args": [{"typeId": "TFT_INT64"}]}]}}, {"name": "PartitionedCall/model/tf.compat.v1.gather_1/GatherV2", "op": "GatherV2", "input": ["PartitionedCall/model/tf.compat.v1.shape_2/wa/Shape", "PartitionedCall/model/tf.__operators__.add_1/AddV2", "PartitionedCall/model/tf.compat.v1.gather_1/GatherV2/axis"], "attr": {"Tparams": {"type": "DT_INT64"}, "Taxis": {"type": "DT_INT32"}, "Tindices": {"type": "DT_INT64"}, "batch_dims": {"i": "0"}}}, {"name": "PartitionedCall/model/tf.expand_dims_1/ExpandDims", "op": "ExpandDims", "input": ["PartitionedCall/model/tf.compat.v1.gather_1/GatherV2", "PartitionedCall/model/tf.expand_dims_1/ExpandDims/dim"], "attr": {"Tdim": {"type": "DT_INT32"}, "T": {"type": "DT_INT64"}}}, {"name": "PartitionedCall/model/tf.concat_1/concat", "op": "ConcatV2", "input": ["PartitionedCall/model/tf.expand_dims_1/ExpandDims", "unknown_119", "PartitionedCall/model/tf.concat_1/concat/axis"], "attr": {"N": {"i": "2"}, "Tidx": {"type": "DT_INT32"}, "T": {"type": "DT_INT64"}}}, {"name": "PartitionedCall/model/tf.reshape_1/Reshape", "op": "Reshape", "input": ["PartitionedCall/model/tf.compat.v1.transpose_5/transpose", "PartitionedCall/model/tf.concat_1/concat"], "attr": {"T": {"type": "DT_FLOAT"}, "Tshape": {"type": "DT_INT64"}}}, {"name": "PartitionedCall/model/tf.concat_2/concat", "op": "ConcatV2", "input": ["PartitionedCall/model/tf.reshape_1/Reshape", "PartitionedCall/model/tf.reshape/Reshape", "PartitionedCall/model/tf.concat_2/concat/axis"], "attr": {"N": {"i": "2"}, "T": {"type": "DT_FLOAT"}, "Tidx": {"type": "DT_INT32"}}}, {"name": "PartitionedCall/model/flatten/Shape", "op": "Shape", "input": ["PartitionedCall/model/tf.concat_2/concat"], "attr": {"T": {"type": "DT_FLOAT"}, "out_type": {"type": "DT_INT32"}}, "experimentalType": {"typeId": "TFT_PRODUCT", "args": [{"typeId": "TFT_SHAPE_TENSOR", "args": [{"typeId": "TFT_INT32"}]}]}}, {"name": "PartitionedCall/model/flatten/strided_slice", "op": "StridedSlice", "input": ["PartitionedCall/model/flatten/Shape", "PartitionedCall/model/flatten/strided_slice/stack", "PartitionedCall/model/flatten/strided_slice/stack_1", "PartitionedCall/model/flatten/strided_slice/stack_2"], "attr": {"shrink_axis_mask": {"i": "1"}, "new_axis_mask": {"i": "0"}, "Index": {"type": "DT_INT32"}, "begin_mask": {"i": "0"}, "T": {"type": "DT_INT32"}, "end_mask": {"i": "0"}, "ellipsis_mask": {"i": "0"}}}, {"name": "PartitionedCall/model/flatten/Reshape/shape", "op": "Pack", "input": ["PartitionedCall/model/flatten/strided_slice", "PartitionedCall/model/flatten/Reshape/shape/1"], "attr": {"N": {"i": "2"}, "axis": {"i": "0"}, "T": {"type": "DT_INT32"}}}, {"name": "PartitionedCall/model/flatten/Reshape", "op": "Reshape", "input": ["PartitionedCall/model/tf.concat_2/concat", "PartitionedCall/model/flatten/Reshape/shape"], "attr": {"T": {"type": "DT_FLOAT"}, "Tshape": {"type": "DT_INT32"}}}, {"name": "PartitionedCall/model/logits/AddV2", "op": "_FusedMatMul", "input": ["PartitionedCall/model/flatten/Reshape", "unknown_120", "unknown_122"], "device": "/device:CPU:0", "attr": {"transpose_a": {"b": false}, "_input_shapes": {"list": {"shape": [{"dim": [{"size": "-54"}, {"size": "2176"}]}, {"dim": [{"size": "2176"}, {"size": "20"}]}]}}, "transpose_b": {"b": false}, "fused_ops": {"list": {"s": ["Qmlhc0FkZA=="]}}, "num_args": {"i": "1"}, "leakyrelu_alpha": {"f": 0.2}, "epsilon": {"f": 0.0}, "T": {"type": "DT_FLOAT"}}}, {"name": "Identity", "op": "Identity", "input": ["PartitionedCall/model/logits/AddV2"], "attr": {"T": {"type": "DT_FLOAT"}}}], "library": {}, "versions": {"producer": 2129}}, "weightsManifest": [{"paths": ["group1-shard1of23.bin", "group1-shard2of23.bin", "group1-shard3of23.bin", "group1-shard4of23.bin", "group1-shard5of23.bin", "group1-shard6of23.bin", "group1-shard7of23.bin", "group1-shard8of23.bin", "group1-shard9of23.bin", "group1-shard10of23.bin", "group1-shard11of23.bin", "group1-shard12of23.bin", "group1-shard13of23.bin", "group1-shard14of23.bin", "group1-shard15of23.bin", "group1-shard16of23.bin", "group1-shard17of23.bin", "group1-shard18of23.bin", "group1-shard19of23.bin", "group1-shard20of23.bin", "group1-shard21of23.bin", "group1-shard22of23.bin", "group1-shard23of23.bin"], "weights": [{"name": "PartitionedCall/model/tf.compat.v1.transpose_5/transpose/perm", "shape": [4], "dtype": "int32"}, {"name": "unknown_112", "shape": [2048], "dtype": "float32"}, {"name": "unknown_103", "shape": [1, 1, 2048, 512], "dtype": "float32"}, {"name": "unknown_105", "shape": [512], "dtype": "float32"}, {"name": "unknown_108", "shape": [3, 3, 512, 512], "dtype": "float32"}, {"name": "unknown_109", "shape": [512], "dtype": "float32"}, {"name": "unknown_110", "shape": [1, 1, 512, 2048], "dtype": "float32"}, {"name": "unknown_102", "shape": [2048], "dtype": "float32"}, {"name": "unknown_97", "shape": [1, 1, 2048, 512], "dtype": "float32"}, {"name": "unknown_98", "shape": [512], "dtype": "float32"}, {"name": "unknown_99", "shape": [3, 3, 512, 512], "dtype": "float32"}, {"name": "unknown_100", "shape": [512], "dtype": "float32"}, {"name": "unknown_101", "shape": [1, 1, 512, 2048], "dtype": "float32"}, {"name": "unknown_88", "shape": [1, 1, 1024, 512], "dtype": "float32"}, {"name": "unknown_89", "shape": [512], "dtype": "float32"}, {"name": "unknown_90", "shape": [4, 2], "dtype": "int32"}, {"name": "unknown_91", "shape": [3, 3, 512, 512], "dtype": "float32"}, {"name": "unknown_92", "shape": [512], "dtype": "float32"}, {"name": "unknown_94", "shape": [1, 1, 512, 2048], "dtype": "float32"}, {"name": "unknown_95", "shape": [2048], "dtype": "float32"}, {"name": "unknown_87", "shape": [1024], "dtype": "float32"}, {"name": "unknown_82", "shape": [1, 1, 1024, 256], "dtype": "float32"}, {"name": "unknown_83", "shape": [256], "dtype": "float32"}, {"name": "unknown_84", "shape": [3, 3, 256, 256], "dtype": "float32"}, {"name": "unknown_85", "shape": [256], "dtype": "float32"}, {"name": "unknown_86", "shape": [1, 1, 256, 1024], "dtype": "float32"}, {"name": "unknown_81", "shape": [1024], "dtype": "float32"}, {"name": "unknown_76", "shape": [1, 1, 1024, 256], "dtype": "float32"}, {"name": "unknown_77", "shape": [256], "dtype": "float32"}, {"name": "unknown_78", "shape": [3, 3, 256, 256], "dtype": "float32"}, {"name": "unknown_79", "shape": [256], "dtype": "float32"}, {"name": "unknown_80", "shape": [1, 1, 256, 1024], "dtype": "float32"}, {"name": "unknown_75", "shape": [1024], "dtype": "float32"}, {"name": "unknown_70", "shape": [1, 1, 1024, 256], "dtype": "float32"}, {"name": "unknown_71", "shape": [256], "dtype": "float32"}, {"name": "unknown_72", "shape": [3, 3, 256, 256], "dtype": "float32"}, {"name": "unknown_73", "shape": [256], "dtype": "float32"}, {"name": "unknown_74", "shape": [1, 1, 256, 1024], "dtype": "float32"}, {"name": "unknown_69", "shape": [1024], "dtype": "float32"}, {"name": "unknown_64", "shape": [1, 1, 1024, 256], "dtype": "float32"}, {"name": "unknown_65", "shape": [256], "dtype": "float32"}, {"name": "unknown_66", "shape": [3, 3, 256, 256], "dtype": "float32"}, {"name": "unknown_67", "shape": [256], "dtype": "float32"}, {"name": "unknown_68", "shape": [1, 1, 256, 1024], "dtype": "float32"}, {"name": "unknown_63", "shape": [1024], "dtype": "float32"}, {"name": "unknown_58", "shape": [1, 1, 1024, 256], "dtype": "float32"}, {"name": "unknown_59", "shape": [256], "dtype": "float32"}, {"name": "unknown_60", "shape": [3, 3, 256, 256], "dtype": "float32"}, {"name": "unknown_61", "shape": [256], "dtype": "float32"}, {"name": "unknown_62", "shape": [1, 1, 256, 1024], "dtype": "float32"}, {"name": "unknown_49", "shape": [1, 1, 512, 256], "dtype": "float32"}, {"name": "unknown_50", "shape": [256], "dtype": "float32"}, {"name": "unknown_51", "shape": [4, 2], "dtype": "int32"}, {"name": "unknown_52", "shape": [3, 3, 256, 256], "dtype": "float32"}, {"name": "unknown_53", "shape": [256], "dtype": "float32"}, {"name": "unknown_55", "shape": [1, 1, 256, 1024], "dtype": "float32"}, {"name": "unknown_56", "shape": [1024], "dtype": "float32"}, {"name": "unknown_48", "shape": [512], "dtype": "float32"}, {"name": "unknown_43", "shape": [1, 1, 512, 128], "dtype": "float32"}, {"name": "unknown_44", "shape": [128], "dtype": "float32"}, {"name": "unknown_45", "shape": [3, 3, 128, 128], "dtype": "float32"}, {"name": "unknown_46", "shape": [128], "dtype": "float32"}, {"name": "unknown_47", "shape": [1, 1, 128, 512], "dtype": "float32"}, {"name": "unknown_42", "shape": [512], "dtype": "float32"}, {"name": "unknown_37", "shape": [1, 1, 512, 128], "dtype": "float32"}, {"name": "unknown_38", "shape": [128], "dtype": "float32"}, {"name": "unknown_39", "shape": [3, 3, 128, 128], "dtype": "float32"}, {"name": "unknown_40", "shape": [128], "dtype": "float32"}, {"name": "unknown_41", "shape": [1, 1, 128, 512], "dtype": "float32"}, {"name": "unknown_36", "shape": [512], "dtype": "float32"}, {"name": "unknown_31", "shape": [1, 1, 512, 128], "dtype": "float32"}, {"name": "unknown_32", "shape": [128], "dtype": "float32"}, {"name": "unknown_33", "shape": [3, 3, 128, 128], "dtype": "float32"}, {"name": "unknown_34", "shape": [128], "dtype": "float32"}, {"name": "unknown_35", "shape": [1, 1, 128, 512], "dtype": "float32"}, {"name": "unknown_22", "shape": [1, 1, 256, 128], "dtype": "float32"}, {"name": "unknown_23", "shape": [128], "dtype": "float32"}, {"name": "unknown_24", "shape": [4, 2], "dtype": "int32"}, {"name": "unknown_25", "shape": [3, 3, 128, 128], "dtype": "float32"}, {"name": "unknown_26", "shape": [128], "dtype": "float32"}, {"name": "unknown_28", "shape": [1, 1, 128, 512], "dtype": "float32"}, {"name": "unknown_29", "shape": [512], "dtype": "float32"}, {"name": "unknown_21", "shape": [256], "dtype": "float32"}, {"name": "unknown_16", "shape": [1, 1, 256, 64], "dtype": "float32"}, {"name": "unknown_17", "shape": [64], "dtype": "float32"}, {"name": "unknown_18", "shape": [3, 3, 64, 64], "dtype": "float32"}, {"name": "unknown_19", "shape": [64], "dtype": "float32"}, {"name": "unknown_20", "shape": [1, 1, 64, 256], "dtype": "float32"}, {"name": "unknown_15", "shape": [256], "dtype": "float32"}, {"name": "unknown_10", "shape": [1, 1, 256, 64], "dtype": "float32"}, {"name": "unknown_11", "shape": [64], "dtype": "float32"}, {"name": "unknown_12", "shape": [3, 3, 64, 64], "dtype": "float32"}, {"name": "unknown_13", "shape": [64], "dtype": "float32"}, {"name": "unknown_14", "shape": [1, 1, 64, 256], "dtype": "float32"}, {"name": "PartitionedCall/model/tf.math.add_7/ArithmeticOptimizer/AddOpsRewrite_Leaf_0_Add", "shape": [256], "dtype": "float32"}, {"name": "unknown_2", "shape": [1, 1, 64, 64], "dtype": "float32"}, {"name": "unknown_3", "shape": [64], "dtype": "float32"}, {"name": "unknown_4", "shape": [3, 3, 64, 64], "dtype": "float32"}, {"name": "unknown_5", "shape": [64], "dtype": "float32"}, {"name": "unknown_7", "shape": [1, 1, 64, 256], "dtype": "float32"}, {"name": "unknown", "shape": [4, 2], "dtype": "int32"}, {"name": "unknown_0", "shape": [7, 7, 3, 64], "dtype": "float32"}, {"name": "unknown_1", "shape": [64], "dtype": "float32"}, {"name": "PartitionedCall/model/tf.compat.v1.pad_2/PadV2/paddings", "shape": [4, 2], "dtype": "int32"}, {"name": "PartitionedCall/model/tf.compat.v1.pad_2/PadV2/constant_values", "shape": [], "dtype": "float32"}, {"name": "unknown_6", "shape": [1, 1, 64, 256], "dtype": "float32"}, {"name": "unknown_27", "shape": [1, 1, 256, 512], "dtype": "float32"}, {"name": "unknown_30", "shape": [512], "dtype": "float32"}, {"name": "unknown_54", "shape": [1, 1, 512, 1024], "dtype": "float32"}, {"name": "unknown_57", "shape": [1024], "dtype": "float32"}, {"name": "unknown_93", "shape": [1, 1, 1024, 2048], "dtype": "float32"}, {"name": "unknown_96", "shape": [2048], "dtype": "float32"}, {"name": "PartitionedCall/model/tf.math.reduce_mean_1/Mean/reduction_indices", "shape": [2], "dtype": "int32"}, {"name": "PartitionedCall/model/tf.__operators__.add_1/AddV2", "shape": [], "dtype": "int32"}, {"name": "PartitionedCall/model/tf.compat.v1.gather_1/GatherV2/axis", "shape": [], "dtype": "int32"}, {"name": "PartitionedCall/model/tf.expand_dims_1/ExpandDims/dim", "shape": [], "dtype": "int32"}, {"name": "unknown_119", "shape": [1], "dtype": "int32"}, {"name": "PartitionedCall/model/tf.concat_1/concat/axis", "shape": [], "dtype": "int32"}, {"name": "PartitionedCall/model/tf.compat.v1.transpose_2/transpose/perm", "shape": [4], "dtype": "int32"}, {"name": "unknown_104", "shape": [4, 2], "dtype": "int32"}, {"name": "unknown_106", "shape": [7, 7, 3, 64], "dtype": "float32"}, {"name": "unknown_107", "shape": [64], "dtype": "float32"}, {"name": "PartitionedCall/model/tf.compat.v1.pad_3/PadV2/paddings", "shape": [4, 2], "dtype": "int32"}, {"name": "PartitionedCall/model/tf.compat.v1.pad_3/PadV2/constant_values", "shape": [], "dtype": "float32"}, {"name": "unknown_111", "shape": [3, 3, 64, 128], "dtype": "float32"}, {"name": "unknown_113", "shape": [128], "dtype": "float32"}, {"name": "PartitionedCall/model/tf.math.reduce_mean/Mean/reduction_indices", "shape": [2], "dtype": "int32"}, {"name": "PartitionedCall/model/tf.__operators__.add/AddV2", "shape": [], "dtype": "int32"}, {"name": "PartitionedCall/model/tf.compat.v1.gather/GatherV2/axis", "shape": [], "dtype": "int32"}, {"name": "PartitionedCall/model/tf.expand_dims/ExpandDims/dim", "shape": [], "dtype": "int32"}, {"name": "unknown_118", "shape": [1], "dtype": "int32"}, {"name": "PartitionedCall/model/tf.concat/concat/axis", "shape": [], "dtype": "int32"}, {"name": "PartitionedCall/model/tf.concat_2/concat/axis", "shape": [], "dtype": "int32"}, {"name": "PartitionedCall/model/flatten/strided_slice/stack", "shape": [1], "dtype": "int32"}, {"name": "PartitionedCall/model/flatten/strided_slice/stack_1", "shape": [1], "dtype": "int32"}, {"name": "PartitionedCall/model/flatten/strided_slice/stack_2", "shape": [1], "dtype": "int32"}, {"name": "PartitionedCall/model/flatten/Reshape/shape/1", "shape": [], "dtype": "int32"}, {"name": "unknown_120", "shape": [2176, 20], "dtype": "float32"}, {"name": "unknown_122", "shape": [20], "dtype": "float32"}]}]}